results/BubbleBoomTrain3/AgentsController/checkpoint.pt (torch, 151925 bytes, 14 tensors)

discrete_act_size_vector f4 [1, 2]
00000000: 0000 a040 0000 0040
5.0 2.0

network_body._body_endoder.seq_layers.0.weight f4 [128, 5]
00000000: fd13 35bd 1332 583f e7b6 0bbe b0e1 b03e
00000010: ed41 dbbe ab06 573e 2271 0ebf 97ea 93bd
00000020: 60f0 41bd de13 8ebd e867 d03c 67ea 713e
00000030: 4ef1 133f abf6 37bd 8573 253f e4d4 84bf
00000040: 9a3c f63e 1e88 37bd 85d1 8ebe 5dea 4b3f
00000050: d63b f43d 6e01 de3d 2294 3d3c ace0 4f3f
00000060: 2d5d 383f fc56 b9bd aaf9 e83e 50c4 e83d
00000070: b1cf 46bf 1c5a d9be 15f7 0fbf 08d4 2fbe
00000080: f354 4f3e 972b 0d3f cb28 393e a5de c33d
00000090: 83bb 943e a450 28be 4959 2bbf 030d 603e
000000a0: 824a 2cbd 1e2b 52be 4844 89bd 754f 83be
000000b0: ee85 52bd 994a bebc bee0 143f 466f 933e
000000c0: cc75 e5bd cf01 2c3f 53fc 67be 6bb6 853e
000000d0: 5cc0 d83d 5428 ee3e d6b9 0fbf 67db f13e
000000e0: e226 a03e 4130 03be e457 4bbf 1ee0 cbbc
000000f0: b1fa 0ebf 0aa0 95be e8a7 1d3e 1c53 aabe
00000100: 305a 383f 50f8 1c3d d1fd 72be a2d4 6a3f
00000110: 0302 c63e 9d96 94be 6b8f 723e b209 5e3f
00000120: 3694 523d 3b59 9bbf 0b9a 2abe 5367 68be
00000130: 9194 9cbc d039 67bf e969 5bbf f23d f33e
00000140: 823d 903e beeb 59be 0be8 3c3f 8299 993e
00000150: a0ff cd3f c9cc a73f 98c1 9f3d 4384 19bf
00000160: c1d9 08bd 0c25 c7bd b9ba 41be 0d36 383f
00000170: 338b 67bd 69cb bc3e 86c1 d5be a573 0f3e
00000180: ff5d 5a3e 0c62 a33e c88d d63e f1bf 423e
00000190: b715 da3d c91e 80be 1dc7 683e 4df6 fb3d
000001a0: e589 8a3e a290 fc3e 71ac 1d3e 6a84 05be
000001b0: 5496 9d3c 4d0b 673e 48da 88bf 5916 a9bd
000001c0: 7bf3 bf3d 88e8 6e3e 6467 a43d 4632 1bbf
000001d0: 3da4 32be 4f64 013f cb97 4cbe b4f3 093f
000001e0: 1230 873d f9d0 ebbd 6a93 633e 3bc8 ccbe
000001f0: 1e0a ddbe ab45 903e f7f3 7a3e c2ad e63e
00000200: 53fa 64be 971a e63d 6d4c 9abe 2927 43bf
00000210: 645b d43d ff53 583f 914d 293e 62dc 5e3e
00000220: 38e0 453f 7128 29be f342 d3be b83f 0cbf
00000230: 9a1d fabe 1ea4 8c3e 3f6d eabe efa3 1cbe
00000240: cff0 41be 350a ffbd 7ee7 473e b731 73be
00000250: 3b6e 263d f9e4 e2bb 4423 163f 708c 80bd
00000260: 5d1a 9ebe 8600 b53e 6f1d 173e 4732 223e
00000270: dcc6 923e 5d2e 5d3e 3077 a6bf 9c87 a43e
00000280: e9bd 0bbf 2efe eabe dffa 9fbe 09bd ad3e
00000290: 6635 88be 1391 e13e 1c9d 27be 17d8 713d
000002a0: a826 a0be ac9d 053f b136 cc3d 5170 a33e
000002b0: e986 07bf f58c d53e 0533 483f e870 a8be
000002c0: 6333 fc3d 7628 7dbe d742 aabe e8ac 28bf
000002d0: daf8 dabe 1e1f babe 26a3 013e 4034 0cbf
000002e0: 286e 3f3c 608b bbbb 0571 2fbe 4228 7e3d
000002f0: b40e 113e c89d b9be 3391 a8be a9ad 02bf
00000300: b772 b23e 64b7 d03d e398 633e eb6d aabe
00000310: 1276 d73c 87e1 303f 423a 86bf 6d92 93be
00000320: de56 0ebf 8ae6 df3e 44ee 64bd 7f11 1abf
00000330: 3bda 323d 72d9 edbe 6a3d 2d3f 5480 82bc
00000340: e56b c23e 379d 343e fec6 2fbe 2eb0 1f3f
00000350: 5106 ec3e 27d0 88be 5541 56bf 66d0 9abd
00000360: 1b4b 51be 9870 1ebe 3b7f 433f 7e4e 8c3c
00000370: 3e40 353f 4fa2 1ebf 7180 bdbe 8c11 0e3f
00000380: 3c24 6b3e 2654 d23e 769e b53e bbfb 773d
00000390: b696 98be 1c14 f43e 35af c43e 68eb c1be
000003a0: 7484 b13e 671a 9f3e e6df 13bf 560b 9b3e
000003b0: 9db8 7cbe 8af9 443e fd15 f73e 477f 53bf
000003c0: 855d 093e 082a 38be eb63 55be dff6 903d
000003d0: 8d73 aa3d 1ab3 213f 29cd 64be cc56 debe
000003e0: 81c3 19bf 84d0 1fbe 87b7 f1be 610e bfbe
000003f0: d5a5 03bf 965e 2a3e b9ae 973e 69ec a3ba
-0.044208515 0.8445141 -0.1364399 0.34547186 -0.42823735 0.20998637 -0.55641377 -0.07222479
-0.04734838 -0.06937383 0.025440171 0.23624574 0.57790077 -0.044912975 0.64629394 -1.0377469
0.4809311 -0.044807546 -0.27894226 0.79654485 0.11925475 0.108401164 0.011570962 0.812022
0.72017175 -0.09049794 0.4550298 0.11365569 -0.7766066 -0.4245156 -0.5623639 -0.17170727
0.2024725 0.5514464 0.18081968 0.095639504 0.2904931 -0.16437012 -0.66933113 0.21879964
-0.042063244 -0.2052426 -0.06702477 -0.25646558 -0.051397257 -0.02322893 0.5815543 0.28795832
-0.112041086 0.6719026 -0.22654848 0.26115736 0.10583565 0.46515143 -0.5614294 0.47237703
0.31279665 -0.12811376 -0.79430985 -0.02488714 -0.55851275 -0.29223663 0.15396082 -0.33266532
0.72012615 0.038322747 -0.23729636 0.917307 0.3867341 -0.2902116 0.23687522 0.86733544
0.051410876 -1.2136606 -0.16660325 -0.22695665 -0.01911381 -0.9032259 -0.8570848 0.47508198
0.28171927 -0.21281335 0.7379157 0.2999993 1.6093636 1.310937 0.07800597 -0.5996744
-0.03341079 -0.09723863 -0.18918885 0.71957475 -0.056529235 0.3687394 -0.4174921 0.14008959
0.21324919 0.3191074 0.41905046 0.19018532 0.10648673 -0.25023487 0.22732206 0.123028375
0.2705833 0.49329096 0.15397812 -0.13038793 0.019236721 0.22562905 -1.0691614 -0.082562156
0.09372612 0.23330891 0.08027533 -0.60623586 -0.17445464 0.50543684 -0.1997978 0.53887486
0.066009656 -0.11514468 0.22224203 -0.39996514 -0.4317178 0.28178152 0.24507128 0.45054442
-0.22361116 0.1123554 -0.30136433 -0.7623163 0.10368994 0.8450317 0.16533495 0.21763757
0.77295256 -0.16519333 -0.41262016 -0.5478473 -0.4885071 0.2746896 -0.45786473 -0.1529691
-0.18939517 -0.12453119 0.19521901 -0.23749433 0.040632468 -0.0069242683 0.5864756 -0.06276786
-0.3087949 0.35351962 0.14757322 0.15839492 0.28667343 0.21599717 -1.3005123 0.32134712
-0.54586655 -0.4589705 -0.31246087 0.33933285 -0.2660324 0.44055995 -0.16368526 0.05904397
-0.31279492 0.52193713 0.09971369 0.31921628 -0.5294023 0.41709104 0.7820285 -0.3289864
0.12314489 -0.24722466 -0.3325412 -0.65888834 -0.42767984 -0.36351866 0.12659892 -0.5476723
0.011683978 -0.005723402 -0.17132957 0.06205011 0.14165765 -0.3625319 -0.32923278 -0.51046234
0.34853145 0.10191229 0.2222629 -0.33286986 0.026301417 0.6909413 -1.0486529 -0.28822652
-0.556013 0.43730575 -0.05589129 -0.60182947 0.043665152 -0.4645496 0.67671835 -0.015930332
0.37972942 0.17638098 -0.17165753 0.62378204 0.4609857 -0.26721308 -0.8369344 -0.0755928
-0.20438807 -0.15472639 0.76366013 0.017127272 0.7080115 -0.61966413 -0.37012056 0.55495524
0.22963041 0.41079825 0.3547246 0.060542803 -0.29802483 0.47671592 0.38414922 -0.37874913
0.34671366 0.3107483 -0.57763517 0.30282086 -0.246798 0.19235817 0.48258963 -0.82616085
0.13414581 -0.17984784 -0.20838897 0.07078337 0.08322821 0.6316391 -0.22343887 -0.43425596
-0.6006394 -0.15606886 -0.47210333 -0.37315658 -0.51424915 0.16637644 0.2962549 -0.0012506369

network_body._body_endoder.seq_layers.0.bias f4 [128]
00000000: 0000 0000 0000 0000 0000 0000 0000 0000
00000010: 0000 0000 0000 0000 0000 0000 0000 0000
00000020: 0000 0000 0000 0000 0000 0000 0000 0000
00000030: 0000 0000 0000 0000 0000 0000 0000 0000
00000040: 0000 0000 0000 0000 0000 0000 0000 0000
00000050: 0000 0000 0000 0000 0000 0000 0000 0000
00000060: 0000 0000 0000 0000 0000 0000 0000 0000
00000070: 0000 0000 0000 0000 0000 0000 0000 0000
00000080: 0000 0000 0000 0000 0000 0000 0000 0000
00000090: 0000 0000 0000 0000 0000 0000 0000 0000
000000a0: 0000 0000 0000 0000 0000 0000 0000 0000
000000b0: 0000 0000 0000 0000 0000 0000 0000 0000
000000c0: 0000 0000 0000 0000 0000 0000 0000 0000
000000d0: 0000 0000 0000 0000 0000 0000 0000 0000
000000e0: 0000 0000 0000 0000 0000 0000 0000 0000
000000f0: 0000 0000 0000 0000 0000 0000 0000 0000
00000100: 0000 0000 0000 0000 0000 0000 0000 0000
00000110: 0000 0000 0000 0000 0000 0000 0000 0000
00000120: 0000 0000 0000 0000 0000 0000 0000 0000
00000130: 0000 0000 0000 0000 0000 0000 0000 0000
00000140: 0000 0000 0000 0000 0000 0000 0000 0000
00000150: 0000 0000 0000 0000 0000 0000 0000 0000
00000160: 0000 0000 0000 0000 0000 0000 0000 0000
00000170: 0000 0000 0000 0000 0000 0000 0000 0000
00000180: 0000 0000 0000 0000 0000 0000 0000 0000
00000190: 0000 0000 0000 0000 0000 0000 0000 0000
000001a0: 0000 0000 0000 0000 0000 0000 0000 0000
000001b0: 0000 0000 0000 0000 0000 0000 0000 0000
000001c0: 0000 0000 0000 0000 0000 0000 0000 0000
000001d0: 0000 0000 0000 0000 0000 0000 0000 0000
000001e0: 0000 0000 0000 0000 0000 0000 0000 0000
000001f0: 0000 0000 0000 0000 0000 0000 0000 0000
0.0 0.0 0.0 0.0 0.0 0.0 0.0 0.0
0.0 0.0 0.0 0.0 0.0 0.0 0.0 0.0
0.0 0.0 0.0 0.0 0.0 0.0 0.0 0.0
0.0 0.0 0.0 0.0 0.0 0.0 0.0 0.0
0.0 0.0 0.0 0.0 0.0 0.0 0.0 0.0
0.0 0.0 0.0 0.0 0.0 0.0 0.0 0.0
0.0 0.0 0.0 0.0 0.0 0.0 0.0 0.0
0.0 0.0 0.0 0.0 0.0 0.0 0.0 0.0
0.0 0.0 0.0 0.0 0.0 0.0 0.0 0.0
0.0 0.0 0.0 0.0 0.0 0.0 0.0 0.0
0.0 0.0 0.0 0.0 0.0 0.0 0.0 0.0
0.0 0.0 0.0 0.0 0.0 0.0 0.0 0.0
0.0 0.0 0.0 0.0 0.0 0.0 0.0 0.0
0.0 0.0 0.0 0.0 0.0 0.0 0.0 0.0
0.0 0.0 0.0 0.0 0.0 0.0 0.0 0.0
0.0 0.0 0.0 0.0 0.0 0.0 0.0 0.0

network_body._body_endoder.seq_layers.2.weight f4 [128, 128]
00000000: 74d5 a93c a0a3 bb3c 18ce 06bd 120c ef3c
00000010: 6524 963d 20ca f13d 7056 2cbc 7d95 013e
00000020: 0993 cdbd 9db2 e7bd e2d3 cbbc 565f 34be
00000030: a5a9 2f3d 66c8 873d e5fa 713d 1d66 6c3d
00000040: 19b9 e13d d41c 80bd 40bd 9b3c ac12 95bd
00000050: b00e 8f3b eb41 92bd 06b7 cd3d caeb 423d
00000060: 1d8a e3bd cee3 47bd 9d0b 853e 1733 b8bc
00000070: 1646 103e 5c11 a4bd 6b27 2fbd 8539 bfbc
00000080: 6632 a5bd de94 38be c730 32bd 27ea fd3c
00000090: 5a59 f9bb 1b12 c1bd f79e 5bbd fa31 2e3d
000000a0: 683f 49be 5690 2bbe 2d18 65bc a60a 8dbd
000000b0: d6f7 8b3d 7858 443d dad3 9dbd 96db 073d
000000c0: efd2 533c 05cf 013e 834a c7bd 3f31 a63d
000000d0: c12c d3bd 21e9 ce3c 8e52 adbb 10be 1f3d
000000e0: b3cf c83d f3c1 103e cf03 79bd cbce e93c
000000f0: 8782 44bd 7b8e 96bd 5b97 ecbd 0a3e bbbd
00000100: fab4 8f3d 6dc6 273e 5c5a edbc e6b5 223d
00000110: 5fff 62be 94be cf3b f993 033d 88e9 2fbb
00000120: fe73 aabc 61e8 92bd 06a7 98bd 060b 1ebe
00000130: 87a7 0d3d 39db 073d ac45 a1bd 3d3d d73d
00000140: 7bed 813d 947e 293d c7b2 3fbe be5a cf3d
00000150: c8e7 83bc 544e a1bb 49c3 42bd 0989 dcbc
00000160: a95f a9bc 6cf7 89bd 46f1 fa3d 8491 4fbc
00000170: 3e2a db3d 8e9b e53a 411c fabc 3df5 f53c
00000180: 8dc2 2b3d abb1 2dbc 5821 93bd d93a 343d
00000190: 8af8 d83d 918c a2bd 89c7 26bd 7cda 763d
000001a0: cd43 61bd aa33 9e3d 2211 053c ddc9 17bd
000001b0: b712 22be 7230 05be 2acb da3d 99a5 6dbe
000001c0: df1d b6bb 2982 ad3c 937e b93a e4a4 bbbd
000001d0: e598 603d 5b8e bb3c 5170 59bd 382f c0bc
000001e0: 0b01 403d 3f97 6dbd 5b19 00bd c5f7 013d
000001f0: 7e70 17be eaeb a73d aa03 b8bd ac32 0a3c
00000200: 1041 6b3c 943b b7bd b9c8 063c d67d 32bc
00000210: 9464 123a 716a 1b3d 469a c5bd 90d2 913d
00000220: 8b67 563d 5720 4f3c f9d7 553d 0669 3e3d
00000230: 0f34 9c3c 0d78 213c 37d9 b2bc 1046 4a3c
00000240: 422d 943d 93e7 babb 9223 ab3d 3f48 87bc
00000250: 3325 0a3d fa2f bf3d d4a9 bcbd 3fef a53c
00000260: b690 85bd 15fd 223d 6509 a53b f6c7 dfbc
00000270: 3b7c f23c 1394 d23c 8655 13bc aaf1 a2bd
00000280: b5e5 433c 46c8 ea3d 7459 073e f440 f23c
00000290: f8c6 e3bc 0c33 6f3d 289e b13d 68a5 c3bb
000002a0: 5089 c03b 4a44 ea3d 2a88 84bd 8868 78bd
000002b0: 0f92 013d fec2 e03a 9b07 d9bd 0de4 00be
000002c0: dd58 74bd 8b6a 793d e894 123e 876e a53d
000002d0: d922 b93d 6298 3c3d 431f 803d bce0 863d
000002e0: d52a 9c3d bb53 f03c 95f5 cbbd 8d92 79bd
000002f0: a7a6 24bd a65b f2b8 e93d 9e3d 8e04 c63d
00000300: 72ed 0abd 9e43 cbbd b950 503d db7c 21be
00000310: 34fe 06be 3c7e 5c3d caff 04bd cde7 ef3c
00000320: cc74 973d cdba a03d 1cb2 573d 595e 273d
00000330: 99f6 11be 5541 d53d 4ed7 fdbd 1ebf 443d
00000340: cdc8 83bc 5938 38be 8499 113d 00a6 f8bd
00000350: 78bd 93bd 786d 78bd aa55 ca3d 0ff9 103d
00000360: 5d12 a93d 6003 ef3d 5a44 443e 438c f73d
00000370: 2523 24be c1aa e1bb cfa9 0b3d 7350 d83d
00000380: a7ba b63d e0d7 093e 8e78 cabd 6639 833c
00000390: cf1b 0dbd 502a e83d bc1c 8ebd 1a67 873c
000003a0: 1285 533c 6296 353d 37f9 a13d ed4c e3bd
000003b0: 9bad 91bd c177 213d 03d9 443d 41c0 203e
000003c0: eca9 dcbd 4fa6 50be 0c65 06be aa2c b1bb
000003d0: 288d 2f3d 27a9 1b3d 23a9 263e 7f80 14be
000003e0: 493c 59be ba27 a13d bcd0 8b3b ece1 be3b
000003f0: be92 75be 4a4f 37bb 06f8 953d 9770 30bd
0.020731665 0.02290517 -0.03291139 0.02918056 0.073311605 0.118061304 -0.010518655 0.12654682
-0.1003781 -0.11313365 -0.024881307 -0.17614493 0.042886395 0.0663002 0.059077162 0.05771457
0.11021633 -0.062554985 0.01901114 -0.07278952 0.0043657646 -0.07141479 0.100446746 0.047588147
-0.111103274 -0.048801236 0.25985423 -0.022485299 0.14089236 -0.080111235 -0.0427622 -0.023342857
-0.08066253 -0.18025538 -0.04350355 0.030995442 -0.0076095285 -0.094272815 -0.053618398 0.04252813
-0.19653094 -0.16754279 -0.013982815 -0.06886797 0.0683438 0.047935933 -0.07706423 0.033168398
0.012928708 0.12676628 -0.09731009 0.08114862 -0.103112705 0.025257649 -0.0052893823 0.038999617
0.098052405 0.14136486 -0.060794648 0.02854099 -0.047976043 -0.07351395 -0.11552306 -0.091426924
0.070169404 0.16384287 -0.02897375 0.039724253 -0.22167729 0.0063398574 0.03212354 -0.0026842076
-0.020807263 -0.07173229 -0.07453732 -0.15433893 0.034583595 0.03316805 -0.07874617 0.10509727
0.06344124 0.04138048 -0.18720542 0.101247296 -0.016101733 -0.0049226675 -0.04754952 -0.026920812
-0.020675497 -0.06736645 0.122530505 -0.012668971 0.107014164 0.0017517672 -0.03053105 0.030024165
0.041933585 -0.010601441 -0.07184094 0.044001434 0.1059428 -0.07936967 -0.040717635 0.060266957
-0.0549963 0.07724698 0.008121761 -0.037057746 -0.15827452 -0.13006762 0.10683282 -0.23207702
-0.00555776 0.02118023 0.0014152102 -0.0916231 0.05483331 0.022895029 -0.05308563 -0.023460016
0.046875995 -0.058005568 -0.03127418 0.031730432 -0.14789006 0.08199294 -0.08985074 0.008434933
0.014358774 -0.089469105 0.008226567 -0.010894259 0.00055844453 0.037943307 -0.09648566 0.0712024
0.05234484 0.012641988 0.05220792 0.046486877 0.019067792 0.0098552825 -0.021832092 0.012345806
0.07235195 -0.0057038753 0.08356394 -0.016513942 0.033726882 0.09335323 -0.0921208 0.020255683
-0.06521742 0.03979214 0.0050365203 -0.027317028 0.029600253 0.025705373 -0.008992558 -0.0795625
0.011956622 0.114639804 0.13217717 0.029571988 -0.027804837 0.05839829 0.08672744 -0.0059706457
0.005875744 0.11438806 -0.06471284 -0.060646564 0.031633433 0.0017147956 -0.10597154 -0.12586994
-0.05965506 0.060892623 0.14314616 0.08077722 0.0903985 0.04604376 0.06255963 0.065858334
0.07625357 0.0293368 -0.099589504 -0.060930777 -0.040197995 -0.0001155653 0.07726652 0.096688375
-0.03391785 -0.09925006 0.050858233 -0.15770285 -0.13182908 0.053831324 -0.032470502 0.029285336
0.07395324 0.078481294 0.052660093 0.04086146 -0.14254226 0.10412852 -0.12394582 0.048033826
-0.01608696 -0.17990245 0.035546795 -0.12141037 -0.07213873 -0.060651273 0.098796204 0.03539377
0.08255456 0.116705656 0.19166699 0.120873 -0.16029032 -0.0068868105 0.03409749 0.105622195
0.0892232 0.13461256 -0.09886275 0.01601858 -0.03445035 0.113361955 -0.069390744 0.016528655
0.012910144 0.04433287 0.07908862 -0.11098657 -0.07113191 0.039420847 0.04805852 0.15698339
-0.107745975 -0.20375942 -0.13124484 -0.0054069357 0.042859226 0.038003113 0.16275458 -0.14502142
-0.21214403 0.07868905 0.0042668264 0.005825272 -0.23981759 -0.0027970844 0.07322697 -0.043076124

network_body._body_endoder.seq_layers.2.bias f4 [128]
00000000: 0000 0000 0000 0000 0000 0000 0000 0000
00000010: 0000 0000 0000 0000 0000 0000 0000 0000
00000020: 0000 0000 0000 0000 0000 0000 0000 0000
00000030: 0000 0000 0000 0000 0000 0000 0000 0000
00000040: 0000 0000 0000 0000 0000 0000 0000 0000
00000050: 0000 0000 0000 0000 0000 0000 0000 0000
00000060: 0000 0000 0000 0000 0000 0000 0000 0000
00000070: 0000 0000 0000 0000 0000 0000 0000 0000
00000080: 0000 0000 0000 0000 0000 0000 0000 0000
00000090: 0000 0000 0000 0000 0000 0000 0000 0000
000000a0: 0000 0000 0000 0000 0000 0000 0000 0000
000000b0: 0000 0000 0000 0000 0000 0000 0000 0000
000000c0: 0000 0000 0000 0000 0000 0000 0000 0000
000000d0: 0000 0000 0000 0000 0000 0000 0000 0000
000000e0: 0000 0000 0000 0000 0000 0000 0000 0000
000000f0: 0000 0000 0000 0000 0000 0000 0000 0000
00000100: 0000 0000 0000 0000 0000 0000 0000 0000
00000110: 0000 0000 0000 0000 0000 0000 0000 0000
00000120: 0000 0000 0000 0000 0000 0000 0000 0000
00000130: 0000 0000 0000 0000 0000 0000 0000 0000
00000140: 0000 0000 0000 0000 0000 0000 0000 0000
00000150: 0000 0000 0000 0000 0000 0000 0000 0000
00000160: 0000 0000 0000 0000 0000 0000 0000 0000
00000170: 0000 0000 0000 0000 0000 0000 0000 0000
00000180: 0000 0000 0000 0000 0000 0000 0000 0000
00000190: 0000 0000 0000 0000 0000 0000 0000 0000
000001a0: 0000 0000 0000 0000 0000 0000 0000 0000
000001b0: 0000 0000 0000 0000 0000 0000 0000 0000
000001c0: 0000 0000 0000 0000 0000 0000 0000 0000
000001d0: 0000 0000 0000 0000 0000 0000 0000 0000
000001e0: 0000 0000 0000 0000 0000 0000 0000 0000
000001f0: 0000 0000 0000 0000 0000 0000 0000 0000
0.0 0.0 0.0 0.0 0.0 0.0 0.0 0.0
0.0 0.0 0.0 0.0 0.0 0.0 0.0 0.0
0.0 0.0 0.0 0.0 0.0 0.0 0.0 0.0
0.0 0.0 0.0 0.0 0.0 0.0 0.0 0.0
0.0 0.0 0.0 0.0 0.0 0.0 0.0 0.0
0.0 0.0 0.0 0.0 0.0 0.0 0.0 0.0
0.0 0.0 0.0 0.0 0.0 0.0 0.0 0.0
0.0 0.0 0.0 0.0 0.0 0.0 0.0 0.0
0.0 0.0 0.0 0.0 0.0 0.0 0.0 0.0
0.0 0.0 0.0 0.0 0.0 0.0 0.0 0.0
0.0 0.0 0.0 0.0 0.0 0.0 0.0 0.0
0.0 0.0 0.0 0.0 0.0 0.0 0.0 0.0
0.0 0.0 0.0 0.0 0.0 0.0 0.0 0.0
0.0 0.0 0.0 0.0 0.0 0.0 0.0 0.0
0.0 0.0 0.0 0.0 0.0 0.0 0.0 0.0
0.0 0.0 0.0 0.0 0.0 0.0 0.0 0.0

action_model._discrete_distribution.branches.0.weight f4 [5, 128]
00000000: fb56 423c 709b 85bb 4b83 1dbb 7af2 e73b
00000010: 75ca abba c543 d53b dbb3 e3ba d742 21bc
00000020: 9ddd e73a a7b3 4cbc 9faf 153b 7b9f c73a
00000030: f4db 40bc 835b adbc 3288 653c 1b8e 8d3a
00000040: 4747 d6bb 373f f8b9 f28a dfbb 99a0 2e3c
00000050: 63e8 de3b 15d2 58bc bd20 7dbb 8287 09bc
00000060: dea3 0bbb 8f47 ec39 106f 3b3c afe4 30bc
00000070: 3ff1 2ebc 4540 dd3a dbad 3ebb 8b1b 5c3c
00000080: 948a 11bc becd 943b d58b e63a e3a2 f33a
00000090: 9f44 4d3c 9b56 63b9 f7c2 263c b4cb a43b
000000a0: 3fc2 f0b9 a72d 4dbb 92c0 92bb bf19 e63b
000000b0: 0549 a3bb 6746 c0ba 2ffa 48bb 7258 0b3a
000000c0: 0b8e 2fbb 3f96 a6bb 95da d83b 0da1 3d3c
000000d0: 65d3 113c f796 a63b 8765 37bc 41b6 223b
000000e0: b3ec 3ebc 8793 97bb c5ea 08bc 883b 50bb
000000f0: 7088 123c 0d83 0ebc 6b46 6c3b ff0f acbb
00000100: 811b 00bb 36f9 b8bb 9f15 723c 6522 12bc
00000110: aa55 a23b ed78 3e3b f70a 6abc a713 6bbb
00000120: 6535 a7bb 93dc 3139 5b49 a03b fdd3 063c
00000130: 5908 1dbc 1f94 923c f101 23bb 01a4 aa3b
00000140: 9acc 5f39 de12 9fbc 2228 0e3c cbdd 43ba
00000150: e2c4 803c 4513 c63a c253 5a3b 102d 363b
00000160: 4b44 3b3c 57ab 2ebb 3de8 b13c 8176 143c
00000170: 2417 aa3b fdab ea3b 684c a739 be83 4b3c
00000180: 12ad 72bb 2547 cdbb 64b5 343c 2d22 4a3c
00000190: f3ed 863b 08b0 e53b ad87 d23b fd5d 7939
000001a0: 9f08 aa3a 3763 6e3b f74f 5fbc 3ff1 093c
000001b0: ce53 a13c 7dc5 59bb ba58 513c 6d91 d1bb
000001c0: d8bf 3c3c 9853 debb d98a 2cbc 7842 19bc
000001d0: f5e7 a1bb 75a1 d4ba e323 423c 3081 a93b
000001e0: 19e2 3b3c 40c7 d63b 0b30 d7bb f66f 083b
000001f0: 78a8 dd3b 6b9d 863c b000 f9bb b739 e8bb
00000200: 3e92 c1ba d935 b7bc e5e0 56bc ded6 0ebc
00000210: 0a2e fc3b a910 12ba e76b 4d3c 8fd3 c13b
00000220: cf6c 6639 fb87 90bb cf6b a93a 60e6 69ba
00000230: 0ddf 3cbb 9fd0 713a cf2d 0fbb 4786 e0bb
00000240: 2224 083a 22df f1b9 1b41 cf3b 1346 883b
00000250: afb8 3d3c 6d99 603c 6e97 9cbc 6b97 f53b
00000260: 6de9 65bb 3edb 4b3b 5dce b33b ab0b d7bb
00000270: 234d 923b ccdc 8b3c 5426 97bb 154f e1ba
00000280: 3912 1a3c bbd2 04bc 2683 30bc a373 40bc
00000290: ffc2 7c3c c48d 8bba 8de2 df3a f291 deb8
000002a0: b868 a8bb f368 373b d54c 943a 2af2 b93b
000002b0: bde3 9a3c e684 2d3c 5379 92bc 5bf4 033c
000002c0: 166a 19bc 5546 25bc eea1 a2bb 3394 6aba
000002d0: facb f0bb dfc8 6abb 6d96 29bc a76e 9f3b
000002e0: cabe 8dbc 37e2 85bb 2694 c03a afb4 bc3b
000002f0: ae86 b93b e189 0c3c 4510 f6bb f1d9 1dbc
00000300: b0b0 2a39 0201 e1bb ef8a c9bb 4a5c baba
00000310: 43f5 a03b f794 803b 21df b9ba 8be0 473a
00000320: 2c60 43bc 4fda 98bc 8886 fd3b 9cdf a93b
00000330: 5661 933b d3cb 78bb 2689 043c 1831 2c3b
00000340: fffe d9bb 87ab bd3c 9dc4 03bc 28a2 0cbc
00000350: eac7 c33b 27a2 c4bb a282 cc3a 332b 993c
00000360: 03df 563c ed52 453c 57fc c43b 17b7 393a
00000370: f009 4f3c 63fa cebb d1ff abbb be33 16bb
00000380: cd4e 7abc 6d99 9ebb c0e9 95bc cfeb a9bc
00000390: 66c8 303c 1419 463c f326 263c b094 e33b
000003a0: 67de 49bb 0e3f c73a c41b a5bb 072d 803b
000003b0: b725 3d3c e7d9 ebbb a8be 27bb 0067 fb3b
000003c0: 3d23 55bb aabf da3b d204 6fbb c6f1 8dbb
000003d0: 170d 8ebb 37dd 39bc 6433 1e3c 7fd4 733c
000003e0: bd4c 65b9 b376 58bc db0b 92bb e3d7 b03b
000003f0: 8c7a 0d3c 0ff0 84bc ef4b 613c d2ac 0abc
0.011861558 -0.0040773675 -0.0024034556 0.007078466 -0.0013106602 0.006508323 -0.0017372327 -0.009842596
0.0017689947 -0.012494004 0.0022840274 0.0015230024 -0.011771191 -0.0211618 0.014009522 0.0010799797
-0.0065392586 -0.00047349345 -0.0068219835 0.010658407 0.006802605 -0.013233681 -0.003862425 -0.008394124
-0.002130739 0.00045066743 0.011440054 -0.01079671 -0.010677635 0.0016880116 -0.0029095325 0.013434301
-0.008883137 0.004541128 0.0017589281 0.0018587973 0.012528568 -0.0002168067 0.010178319 0.005029166
-0.00045921092 -0.0031307728 -0.0044785226 0.007022112 -0.00498307 -0.0014669419 -0.00306667 0.00053156086
-0.0026787545 -0.0050838287 0.006617854 0.011574042 0.008900498 0.0050839144 -0.01119364 0.002482787
-0.011653113 -0.004625741 -0.008356755 -0.0031773765 0.008943662 -0.008698237 0.0036052715 -0.0052509303
-0.0019547644 -0.0056449426 0.014775663 -0.008919333 0.0049540596 0.0029063777 -0.014284841 -0.0035869868
-0.0051028007 0.00016962206 0.004891557 0.008229253 -0.00958451 0.017892895 -0.0024872983 0.005207539
0.00021343157 -0.019418176 0.008676561 -0.00074717094 0.015718881 0.0015111944 0.0033314084 0.0027797855
0.0114298565 -0.002665242 0.021717185 0.009061457 0.005190747 0.007161616 0.0003190965 0.0124215465
-0.0037029427 -0.0062645846 0.011029575 0.01233725 0.004117721 0.00700951 0.006424865 0.00023781504
0.001297254 0.0036375055 -0.013629905 0.008419334 0.019693282 -0.0033229284 0.012777502 -0.00639551
0.0115203485 -0.0067848675 -0.010531151 -0.009354226 -0.0049409815 -0.0016222434 0.011849376 0.005172871
0.01146748 0.006554514 -0.0065670065 0.0020818687 0.006764468 0.016432485 -0.007598959 -0.0070869583
-0.0014768315 -0.022364544 -0.0131151425 -0.0087182205 0.007695918 -0.00055719406 0.012537933 0.0059151123
0.00021975044 -0.0044107414 0.0012925806 -0.0008922573 -0.0028819472 0.00092245074 -0.0021847372 -0.0068519446
0.00051933725 -0.0004613335 0.0063249 0.004158744 0.0115796765 0.013708455 -0.019115176 0.007494857
-0.003508176 0.003110602 0.005487247 -0.00656267 0.004464762 0.017073058 -0.0046127234 -0.0017189706
0.009403759 -0.008106883 -0.010773456 -0.01174632 0.01542735 -0.0010647108 0.0017081067 -0.00010612969
-0.0051394366 0.0027986139 0.0011314402 0.00567462 0.018907422 0.0105907675 -0.017880118 0.008053864
-0.009363672 -0.010087569 -0.004963151 -0.0008948475 -0.0073485347 -0.0035825295 -0.010350806 0.0048654857
-0.01730289 -0.004085805 0.0014692589 0.005758844 0.005661807 0.008577795 -0.0075092637 -0.009634481
0.00016278285 -0.006866575 -0.0061505954 -0.0014218178 0.00491205 0.003924008 -0.0014180877 0.0007624707
-0.011924785 -0.018658785 0.0077369846 0.005184127 0.0044976873 -0.0037963286 0.008089339 0.002627438
-0.0066527124 0.02315308 -0.008042482 -0.008583583 0.0059747593 -0.0060007754 0.0015602896 0.018697357
0.013114694 0.012043697 0.0060115266 0.00070844725 0.012636647 -0.0063164695 -0.0052490016 -0.0022919024
-0.015277577 -0.004840067 -0.018299937 -0.020742325 0.010789966 0.01209094 0.010141122 0.006945215
-0.0030802728 0.0015201287 -0.0050387103 0.0039116177 0.011544636 -0.007197607 -0.0025595818 0.0076721907
-0.0032522224 0.00667568 -0.003647138 -0.0043318 -0.0043350565 -0.011344246 0.009655807 0.014882206
-0.00021867729 -0.013211894 -0.0044569797 0.0053968295 0.0086351745 -0.01622775 0.013751014 -0.008464055

action_model._discrete_distribution.branches.0.bias f4 [5]
00000000: 0000 0000 0000 0000 0000 0000 0000 0000
00000010: 0000 0000
0.0 0.0 0.0 0.0 0.0

action_model._discrete_distribution.branches.1.weight f4 [2, 128]
00000000: 0fb2 27bb 44eb 883c d047 2e3c 7b63 013a
00000010: 9bca b1b9 6729 0fba c718 8a3b 7f7e abba
00000020: 36e5 153c 4f98 8cba 66a1 4a3c 7f05 0fbc
00000030: bbf9 bebb 8a41 dd3a 4479 0abc dd2e 2b3a
00000040: ca94 84ba 53bc 43bb 3529 5eba d056 8c3b
00000050: d3d3 2a3c b76a 76bb 9270 adba 1d09 e639
00000060: d207 eb3b 708d f93a a2fb c23b b7c2 853b
00000070: f30a d03b 2f78 38bc 6b2f c4ba 8c6a 0fbc
00000080: a1ad a13c 0b8e be3b e0cb b13a 6d86 7fbc
00000090: 0c8f cc3b 2792 063c bf3a f7bb 865d 0e3c
000000a0: 5779 d93b cf2e 843b 1b21 613b ca84 4fbb
000000b0: 27df baba 4fc9 a83b 3e84 153c 9094 d0bc
000000c0: e501 a03a 037f 1cbc 32b4 3d3c a211 bcbb
000000d0: 3f52 a13a 5d4b 5ebc 9b25 fb38 f823 57bc
000000e0: 88f7 1e3b 344b 223c 23e9 a53b 5ec9 9fbc
000000f0: db7a 003c c2f8 233c 3f1f 32bc 82bd 6ebc
00000100: 347e 923b 3f3c bc3c fca3 a739 4b9e b0ba
00000110: 3495 2f3c e76e 153c 5977 c93b 5827 89bc
00000120: dfea 85bb de8b 90bb a2d7 603b f961 19bb
00000130: 7c09 353c 5db6 c53b 62a5 713c e029 a9bb
00000140: 9eff 17bb 50eb eebb 4928 0e3b d6e0 25bc
00000150: 97a0 07bd 3029 04bb 2161 a7bb abe3 3b3c
00000160: 1d04 1c3c 49f8 81bc 042b 91b7 beb7 0abc
00000170: 80fc 853b 7d0c 36bc 93fd 97b9 fb5c 1e3b
00000180: a6ed 22bc e443 b93a d323 32ba 58f7 f039
00000190: 32a1 4d3b 5a5b d13b 2dbf 59bb 80cc 2dbb
000001a0: ee21 26bc a1da 46bb 4ee4 233c 2793 4a3a
000001b0: 3eff 34bb 38e3 fa3b 6677 473b 9f62 a8ba
000001c0: 524c 963b 186b 37bc ff36 23bc 73b9 52bc
000001d0: caa7 96ba 0a94 24ba c376 773c 9d5a a7bc
000001e0: 619d 9dbb 71b6 47bb 93b0 38ba f562 f8bb
000001f0: 5135 b43a 4a5e 19bc 1529 6bbc fb17 013c
00000200: 4f72 2abc 253a 2c3b b016 7fbb 40fb 11bb
00000210: d1ad 053c a3c3 7e3a 60fe f53b 1578 a2bb
00000220: 888f f53b 0460 bebb b73d 86bc c3ee d2bb
00000230: 15ca 353b 1a83 4ebc 9239 a8bc bda1 5bb8
00000240: c898 ce3b e3e1 b6bc 1a0a d6b9 bff3 453c
00000250: 00ac f5bb 1d7b 093b f323 f7bb d756 b13b
00000260: e0e3 e1bb 521c abba 049c ccbb f536 d6bb
00000270: 82c1 f5ba 56d2 b23a 7086 6b3b 7f14 2cbc
00000280: 7b0b 24ba a593 ec3b d81e 553b 4171 a4bb
00000290: 77e2 333c 23e6 b9ba 4c80 093c 7b96 693a
000002a0: 488f fd39 0b62 10bc 27a7 f7bb 5e42 9cbb
000002b0: efcd d63b 0f89 6a3b d922 25bc ed92 653a
000002c0: d3b3 1dbc 86ff 16bc 060e cc3b 2042 e3bb
000002d0: 4122 3bbc 62e8 6bbc 7e92 8fba 860c 323b
000002e0: d6c0 1bbb 6385 02bc 071b 3a3a 9a92 8aba
000002f0: 1ba5 0a3c 54ae 063b abe8 e73b 2d30 83bb
00000300: 5cfd 1537 a85c 60bb 87ae b93b 8a29 7bbb
00000310: 8b1d 1dbb b728 22bc f1ee 903a cf41 6ebc
00000320: 0498 a5bb faf2 4d3c baa5 d5bb cb8b 95bc
00000330: 77f5 fcbb d8d7 99bb bf20 9abb ce7b 993b
00000340: 0278 c7ba 37cf ab3c 9cb9 87bb 4844 5cbb
00000350: 34f6 033c 0f5d 173a 60e3 0c3c 457a 56bc
00000360: ea53 3c3c d243 b7bc d517 d33a 60cf 203b
00000370: 4442 44bb 5941 19bc f2c2 603c 27bc acbb
00000380: da70 563b 6dfd 593c 4f08 783b 1be6 263b
00000390: f564 50bb ac06 4bba 4716 dd3a 46b4 9a3a
000003a0: 1b06 b6ba 9b0e 493b 33a6 003c 09f5 9abb
000003b0: f297 9b3c 23da 7f3b a3e2 5cbc eb46 0eb9
000003c0: 4ff6 a9bc 4e46 b0bb 074b 8e3b be2c 36bb
000003d0: 2089 533b d85d 2dbb 1991 17bc 83b0 0ebb
000003e0: 9639 1fb9 4b7e acbb fc71 b43b 9b44 5cbb
000003f0: a76c 46bc 135b f83b 3092 4c3b 4fcd 84bc
-0.002558831 0.016713746 0.010637239 0.0004935783 -0.00033911024 -0.00054611865 0.0042143795 -0.0013083963
0.009148886 -0.0010726544 0.012367582 -0.008729338 -0.00582811 0.0016880494 -0.008451764 0.00065301155
-0.0010115143 -0.0029866889 -0.0008474768 0.00428281 0.010426479 -0.0037600228 -0.0013232401 0.00043875808
0.007172563 0.0019039344 0.005950407 0.0040820497 0.0063489615 -0.011259123 -0.0014967745 -0.00875343
0.019736113 0.0058152727 0.0013564788 -0.015596014 0.0062426385 0.008213556 -0.007544845 0.00868929
0.0066367793 0.0040339003 0.0034352008 -0.0031664842 -0.0014257178 0.005150951 0.009125767 -0.025461465
0.0012207596 -0.009551766 0.011578606 -0.0057394067 0.0012307836 -0.013567773 0.00011975617 -0.013131134
0.0024256427 0.009905625 0.0050631925 -0.019505199 0.007841791 0.010008039 -0.010871707 -0.014571549
0.004470611 0.022977946 0.000319749 -0.0013474909 0.010716725 0.009120679 0.0061482606 -0.016742393
-0.0040868367 -0.0044112047 0.0034308215 -0.0023404344 0.0110496245 0.0060337023 0.014748903 -0.0051624626
-0.0023193131 -0.007291235 0.0021691492 -0.010124406 -0.033112135 -0.0020166151 -0.005108014 0.0114678545
0.009522465 -0.015865462 -1.7305378e-05 -0.008466659 0.0040889382 -0.011111376 -0.00028989892 0.0024164307
-0.009944355 0.0014134613 -0.00067954994 0.00045960653 0.0031376597 0.006389064 -0.0033225522 -0.0026519597
-0.010139925 -0.0030342715 0.010003163 0.0007727616 -0.0027617957 0.007656481 0.0030436157 -0.0012846774
0.004586735 -0.011194967 -0.009961843 -0.012861597 -0.0011494097 -0.0006278163 0.015103999 -0.02042895
-0.004810021 -0.0030473734 -0.00070453546 -0.007580156 0.00137488 -0.009360859 -0.014353056 0.007879253
-0.01040323 0.0026279774 -0.0038923435 -0.0022275 0.008159117 0.0009718483 0.0075071305 -0.0049581625
0.007493917 -0.005809786 -0.01638685 -0.006437154 0.0027738858 -0.012604499 -0.020535264 -5.23643e-05
0.006304834 -0.022324508 -0.00040824787 0.012082039 -0.0074973106 0.0020977922 -0.0075421273 0.0054119634
-0.00689362 -0.0013054705 -0.0062441844 -0.006537313 -0.0018749686 0.0013643007 0.0035938285 -0.0105029335
-0.0006257814 0.007219749 0.0032519605 -0.0050183837 0.010979286 -0.0014182966 0.008392405 0.0008910668
0.00048362673 -0.008812438 -0.007557768 -0.004768654 0.006555311 0.003578726 -0.010079109 0.00087575504
-0.009625393 -0.009216195 0.0062272577 -0.006935373 -0.011421741 -0.014398666 -0.0010953692 0.002716811
-0.0023766062 -0.007966372 0.00070993643 -0.0010572255 0.008462216 0.0020550685 0.0070772967 -0.0040035457
8.940082e-06 -0.0034234915 0.0056665572 -0.003832432 -0.0023973908 -0.0098974025 0.0011057538 -0.014542057
-0.005053522 0.012570137 -0.0065200003 -0.018255135 -0.0077196914 -0.00469492 -0.0047036107 0.004683948
-0.001521826 0.020972831 -0.0041419994 -0.0033610035 0.008054305 0.00057740597 0.008599132 -0.013090675
0.011494616 -0.022371206 0.0016105125 0.0024537668 -0.0029946724 -0.009353959 0.013718354 -0.005271453
0.0032721073 0.01330505 0.003784675 0.0025466743 -0.0031798456 -0.00077448296 0.0016867601 0.0011802993
-0.0013887318 0.0030678872 0.007852125 -0.0047289175 0.018993352 0.0039039932 -0.013481769 -0.00013568594
-0.020747332 -0.0053794747 0.00434244 -0.0027797665 0.0032277778 -0.002645364 -0.009250903 -0.002177269
-0.00015184874 -0.0052640787 0.005506752 -0.0033610228 -0.012110866 0.0075792163 0.0031215064 -0.01621118

action_model._discrete_distribution.branches.1.bias f4 [2]
00000000: 0000 0000 0000 0000
0.0 0.0

network_body._body_endoder.seq_layers.0.weight f4 [128, 5]
00000000: adb5 efbe 6957 ed3d b7fa 2a3f 7a84 35be
00000010: 3363 87be 63c7 2cbf c871 18bf e621 a93e
00000020: 2cb9 afbe 7664 55be 9c62 88bf 7586 d13d
00000030: f884 8bbe 1bc9 8cbe 5e9b 883e b164 f73e
00000040: 7cb0 363f 1242 4e3b 1403 48bf caaf c9bc
00000050: f974 d63e 6183 2f3e 59c2 293d af5b 103e
00000060: 0bdd 2bbf 3c9f 30be 8709 d4be 7fa4 d7be
00000070: 7bfe 23be bfcb d2bd dbed 4dbe 83b7 31be
00000080: 7968 9fbe a878 4d3d 9bc8 05bf d597 c5be
00000090: a6ce f43e 1ede 6cbf b673 003f e776 b6be
000000a0: 561e db3d 2967 cfbe 1297 f9be 94a9 b5bd
000000b0: d422 1fbf 42e6 823e c0ec b33e 1f0b 03bf
000000c0: 56ed a1be 0075 55be 2166 41bf cf92 41bf
000000d0: b47f 7e3d fd0e 8cbe d2d3 0d3c fb62 5bbf
000000e0: ae42 10bf 3168 163f 1a01 f03e ba0f dd3e
000000f0: 5687 9cbe b422 4bbf b43a 57bf 16d1 85bd
00000100: ebb6 9bbe dab9 e0be d467 c23e 14b0 443f
00000110: 8fed 02bf 1e76 4dbf 0782 10bf f1a9 523f
00000120: 924a b03e ded2 e23e 96a2 613e 321e 5cbe
00000130: 479f 683e b346 3bbe a7ca a9be c60b 86bf
00000140: e16c 153e 1798 21bf 3870 c1bd 7868 453d
00000150: 4f34 cd3e 2d67 2c3d d36e b13e 70cd 98be
00000160: a989 b2be cfc3 63bd 13e6 a13e 753b b9bb
00000170: 64f6 3c3f f6b0 8ebe 0be9 d63e 6c92 4e3d
00000180: cb60 9abd db9a 92bd b607 963e b8ec e23e
00000190: 5858 743e da77 d6be 3943 643e 6113 2b3f
000001a0: 1f4a 81bc eb08 ee3d 13f9 053d 5886 d1be
000001b0: aafd 893e 798a 36bf 8935 3dbf b72a b53e
000001c0: 6b3f 86bf 4b67 e3bd 81cc a33e 6f6f 21bf
000001d0: b10d 1b3e 13b6 b2be 348c 3b3e bcc1 94bd
000001e0: 0ce9 a5be ecff 4b3e 7815 3ebf bbcf e63e
000001f0: 0b7b 9f3f 0898 013c 71cf dd3e 96b4 133d
00000200: 9c63 b0be c344 09be f3a0 443e 72aa 38bc
00000210: 4fa7 89bf d953 d8be bbb0 093f 3851 c2bd
00000220: fbdb 57bf f265 133e 9a1f 8ebe cd80 20bb
00000230: 1925 1bbf 3199 84be f44c dabe c528 c53e
00000240: e866 af3e a861 083f 146e 03bf d59d 2fbe
00000250: 64a2 95be 6fce 1fbf dd90 8c3e c845 163e
00000260: 1391 b2be d649 b43d b588 873e 64f6 c4be
00000270: 2155 e7be 6145 4dbe 323d d8be 3f6b 683e
00000280: 9742 8e3d ee2d a63e b012 23bf f77f 0a3f
00000290: f5ac 4cbe c718 893e 7e94 bebe 1b15 473e
000002a0: e2e9 8bbe a1c4 eebc 775d 19bf b464 353f
000002b0: 436f 543f 02ce 3a3e fee0 09bf 1ad7 14be
000002c0: c408 9c3e 8623 283f 794c afbc f71f 3e3f
000002d0: 124b 35be 92d3 1fbf 4b21 6b3e 272f 803e
000002e0: f2ce 033e 2e53 1abf 48f4 1f3f c345 423f
000002f0: 53e3 573e 1372 aa3e eff0 f43e 23ba cbbe
00000300: d8bc 23bf 7e24 843e 5fd6 a03f a100 2bbd
00000310: ade0 0cbf 44f8 0dbe c767 623e 200b a63d
00000320: eb09 96bd 9549 e7be 618c eebe ac9a ccbd
00000330: bd76 07bf 1b5f ae3d bbfd 16bf 60cf 053f
00000340: e8c1 1e3d 26ab 4d3e 01b7 723f f450 5b3d
00000350: 05b2 ddbe b763 253f 097b cebd bd3b 1abe
00000360: 1630 0a3f 2632 1b3f b41d 0abd 1c00 b83e
00000370: 8b65 5f3d 368e 3b3f 1b39 00bf 3f4a 0bbe
00000380: fe0d d93d 66a2 6cbf 7de7 81bf eddd 143f
00000390: f6aa cf3e 4a3c 703e bf83 28bf dd16 ca3e
000003a0: 139d 67be 8e64 49bf f384 073f 79e4 553e
000003b0: 7610 743d 329e 203f 86eb 04bf 5a7a bcbe
000003c0: 709b 5d3f b3de e13d 6095 c1be ff64 9b3e
000003d0: 3abf 5abe cffb 59bf 5104 2f3e f2a7 abbd
000003e0: ef5b 03bf 63d3 c8be 4d1b 75be eed3 00bc
000003f0: 3a79 573c 7d93 84bf d940 2cbd 9479 633b
-0.46818295 0.11588938 0.6678881 -0.17726317 -0.2644287 -0.6749174 -0.59548616 0.33033675
-0.34320962 -0.20839104 -1.0655093 0.10230724 -0.27249885 -0.2749718 0.26681036 0.4831901
0.71363044 0.0031472486 -0.78129697 -0.024619956 0.41886118 0.17139961 0.04144511 0.14097475
-0.6713416 -0.17248243 -0.4141352 -0.42117688 -0.16015045 -0.10292768 -0.20110266 -0.1735516
-0.31134394 0.050163895 -0.52259225 -0.385924 0.4781391 -0.92526424 0.5017656 -0.3563759
0.106991455 -0.40508392 -0.4874807 -0.08870235 -0.6216252 0.25566298 0.35141563 -0.51188844
-0.31626385 -0.20845413 -0.7554646 -0.7561464 0.062133506 -0.27355185 0.008656459 -0.8569791
-0.56351745 0.58752733 0.4687584 0.4317606 -0.30572003 -0.7934983 -0.8407395 -0.065340206
-0.30412993 -0.43891793 0.3796984 0.76831174 -0.51143736 -0.8025836 -0.56448406 0.8229056
0.34431893 0.44301504 0.22034678 -0.21495894 0.2271701 -0.18288688 -0.33162424 -1.0472343
0.14592315 -0.63122696 -0.09445232 0.048195332 0.4007897 0.042090584 0.34654865 -0.29844236
-0.3487065 -0.05560666 0.31620845 -0.00565284 0.7381346 -0.27869385 0.41974673 0.050432608
-0.07537993 -0.071584426 0.29302758 0.44321227 0.23861825 -0.41888314 0.22291268 0.66826445
-0.015782414 0.11622795 0.03270824 -0.4092281 0.26951343 -0.7130504 -0.73909813 0.3538415
-1.0488104 -0.11103686 0.31991962 -0.6306066 0.15141942 -0.34904537 0.18315202 -0.072635144
-0.32404363 0.19921845 -0.7425151 0.4508036 1.2459425 0.007909782 0.43322328 0.036060892
-0.34450996 -0.13405137 0.19202022 -0.011271106 -1.0754184 -0.4225147 0.53785294 -0.094881475
-0.8432004 0.14394358 -0.27758485 -0.0024490834 -0.6060348 -0.25898126 -0.42636836 0.38507667
0.342582 0.5327401 -0.5133984 -0.17150052 -0.29225457 -0.6242437 0.27454272 0.14675057
-0.34876308 0.088031456 0.26471487 -0.3846923 -0.45182136 -0.20045997 -0.42234188 0.22697161
0.06946295 0.32456917 -0.6370039 0.5410151 -0.19987853 0.26776716 -0.37222666 0.19441645
-0.27326876 -0.029146494 -0.5990824 0.70856786 0.8298227 0.18242648 -0.53858936 -0.1453518
0.30475438 0.65679204 -0.02139877 0.74267524 -0.17704418 -0.62432206 0.22961919 0.25035974
0.12871912 -0.6028317 0.6248212 0.758877 0.21082811 0.33290157 0.47840068 -0.3979045
-0.6396003 0.2580909 1.2565421 -0.041748647 -0.5503033 -0.13864237 0.221099 0.08107591
-0.073261105 -0.45173326 -0.46591476 -0.09990439 -0.52915555 0.08514234 -0.5898091 0.52269554
0.038759142 0.20084819 0.9481049 0.053544 -0.4329988 0.6460528 -0.10082061 -0.15061851
0.53979623 0.60623395 -0.033719733 0.35937583 0.0545402 0.7326387 -0.50087136 -0.13602541
0.10598372 -0.924353 -1.014877 0.5815113 0.4056012 0.23460498 -0.6582603 0.39470568
-0.22618513 -0.7866906 0.5293724 0.20887937 0.05958601 0.62741387 -0.5192188 -0.36812097
0.86565304 0.11028805 -0.37809277 0.3035049 -0.2136201 -0.85149854 0.1709149 -0.083816424
-0.51312155 -0.39223775 -0.23936196 -0.007863028 0.013151461 -1.035751 -0.04205403 0.0034709917

network_body._body_endoder.seq_layers.0.bias f4 [128]
00000000: 0000 0000 0000 0000 0000 0000 0000 0000
00000010: 0000 0000 0000 0000 0000 0000 0000 0000
00000020: 0000 0000 0000 0000 0000 0000 0000 0000
00000030: 0000 0000 0000 0000 0000 0000 0000 0000
00000040: 0000 0000 0000 0000 0000 0000 0000 0000
00000050: 0000 0000 0000 0000 0000 0000 0000 0000
00000060: 0000 0000 0000 0000 0000 0000 0000 0000
00000070: 0000 0000 0000 0000 0000 0000 0000 0000
00000080: 0000 0000 0000 0000 0000 0000 0000 0000
00000090: 0000 0000 0000 0000 0000 0000 0000 0000
000000a0: 0000 0000 0000 0000 0000 0000 0000 0000
000000b0: 0000 0000 0000 0000 0000 0000 0000 0000
000000c0: 0000 0000 0000 0000 0000 0000 0000 0000
000000d0: 0000 0000 0000 0000 0000 0000 0000 0000
000000e0: 0000 0000 0000 0000 0000 0000 0000 0000
000000f0: 0000 0000 0000 0000 0000 0000 0000 0000
00000100: 0000 0000 0000 0000 0000 0000 0000 0000
00000110: 0000 0000 0000 0000 0000 0000 0000 0000
00000120: 0000 0000 0000 0000 0000 0000 0000 0000
00000130: 0000 0000 0000 0000 0000 0000 0000 0000
00000140: 0000 0000 0000 0000 0000 0000 0000 0000
00000150: 0000 0000 0000 0000 0000 0000 0000 0000
00000160: 0000 0000 0000 0000 0000 0000 0000 0000
00000170: 0000 0000 0000 0000 0000 0000 0000 0000
00000180: 0000 0000 0000 0000 0000 0000 0000 0000
00000190: 0000 0000 0000 0000 0000 0000 0000 0000
000001a0: 0000 0000 0000 0000 0000 0000 0000 0000
000001b0: 0000 0000 0000 0000 0000 0000 0000 0000
000001c0: 0000 0000 0000 0000 0000 0000 0000 0000
000001d0: 0000 0000 0000 0000 0000 0000 0000 0000
000001e0: 0000 0000 0000 0000 0000 0000 0000 0000
000001f0: 0000 0000 0000 0000 0000 0000 0000 0000
0.0 0.0 0.0 0.0 0.0 0.0 0.0 0.0
0.0 0.0 0.0 0.0 0.0 0.0 0.0 0.0
0.0 0.0 0.0 0.0 0.0 0.0 0.0 0.0
0.0 0.0 0.0 0.0 0.0 0.0 0.0 0.0
0.0 0.0 0.0 0.0 0.0 0.0 0.0 0.0
0.0 0.0 0.0 0.0 0.0 0.0 0.0 0.0
0.0 0.0 0.0 0.0 0.0 0.0 0.0 0.0
0.0 0.0 0.0 0.0 0.0 0.0 0.0 0.0
0.0 0.0 0.0 0.0 0.0 0.0 0.0 0.0
0.0 0.0 0.0 0.0 0.0 0.0 0.0 0.0
0.0 0.0 0.0 0.0 0.0 0.0 0.0 0.0
0.0 0.0 0.0 0.0 0.0 0.0 0.0 0.0
0.0 0.0 0.0 0.0 0.0 0.0 0.0 0.0
0.0 0.0 0.0 0.0 0.0 0.0 0.0 0.0
0.0 0.0 0.0 0.0 0.0 0.0 0.0 0.0
0.0 0.0 0.0 0.0 0.0 0.0 0.0 0.0

network_body._body_endoder.seq_layers.2.weight f4 [128, 128]
00000000: 8388 33be 6599 c03d 639d f7bd ae28 cebd
00000010: 6df2 c33d 2237 303e e09f 143e 4f09 743e
00000020: f5b8 c8bd 06ed b23d 5e76 2b3e 3af1 70bc
00000030: b2b4 873d 44be 42bc e95c 84bd f433 e63d
00000040: a1a4 943d 0371 633d 842c 3a3e 71ca db3c
00000050: 6ed0 1e3e f763 fc3c 9371 b7bc 6388 c63d
00000060: cad9 013e b8d5 383a 7b43 87bb f06b 9a3d
00000070: 82c5 ccbd e697 7cbe d38d 053e 9349 07be
00000080: c405 533d 3692 653d 5e69 3ebd 5517 eb3c
00000090: 56c4 1b3d 1bac 6ebd fd36 64bd c19f a8bd
000000a0: d41b 9a3d cb9c b13d 357d cdbd 0993 e83d
000000b0: d293 443e 8009 8dbd 6dd2 3abd e65d 16bc
000000c0: 85de 25bd 914d 933d a0f5 90bd 92a9 853d
000000d0: 7248 3e3d ea0c ea3c 84b2 9fbd fa65 543d
000000e0: 732f 34bd ee1e ad3d 120b 873c 1cce a4bd
000000f0: 3c2d 11bc b7af ad3d 5e28 c2bc 6b8e 3e3c
00000100: 3653 5b3b 4b98 1ebe 7065 3d3d 7201 e63c
00000110: 5a80 023d 0815 e53d eeb1 afbd 19f7 d93b
00000120: 4953 9c3d 11ef 03bc 189b ca3d 406c 1c3d
00000130: fc87 c63b 3a00 29bd cbe4 2fbc 2a69 0f3e
00000140: d88d a9bc 1e71 9d3d 6260 e23c d100 ed3d
00000150: 2453 db3b 116b 2abc f99a 07bc 7859 56bc
00000160: c473 5cbc a975 afbd 18d2 913d 495a 343e
00000170: b773 dbbd b0c8 afbd 32f9 34be 5e93 3bbd
00000180: a9d2 153c bbd0 633b 36cb 8abd 1b1d 8ebc
00000190: f326 07be ad2b 32be 4dae 90bd 8089 753d
000001a0: 0646 45bd 2e45 45bd 85df 813c b8b2 9c3d
000001b0: 5759 96bb 832a 133e 4d30 583d c30e 54bc
000001c0: 41b3 d0bc 24e6 5a3d dc67 57bd 406d 073e
000001d0: 6d8f 123d c95b cebc 00d7 adbc 0027 ea3d
000001e0: 41a6 15bd 1397 653d 136e 513d eb0b d93c
000001f0: 409e 8e3d fc85 adbc d02a 9a3d 44d1 3abd
00000200: 96e9 283e 2700 dabc c383 3f3e bb6e ae3d
00000210: 89d1 35bd 7682 e3bb 8d2d 50bd 1d92 e63c
00000220: 9b31 31be bfaa eb3d 77bf e3bd 8d20 a7bd
00000230: 5e3b 24be 6aa4 e83c 664b 16bd 19a4 a03d
00000240: 3aac 8f3d ab28 6bbc 4986 f5bc ec9d b2bd
00000250: 9fe8 813b 6974 03be 7de3 42be 02e4 ddbc
00000260: 8f61 14bc ae77 c03d 060b 0b3e 31be e23c
00000270: b61b e2bd 7090 003d 5313 13bd 629e 7bbc
00000280: a822 58bd 5817 353b 7939 863d 248a dc3c
00000290: 4211 c7bc c951 dc3d 2f99 aebd 8633 6aba
000002a0: 78df 98bd e4be 06be e44c c23d 6f8a 04bc
000002b0: e318 8d3d 6cc0 0e3c e5ba 44bd 69f7 143e
000002c0: 105b b03d a66e 1cbd 826f 0fbe ebb2 853c
000002d0: 19a1 48bc 7352 f1bc c763 00be 905b a4bd
000002e0: 20e9 a03a 17f5 253d 40fc 183d 5e78 123d
000002f0: f188 c73d 0b8c a73d 842a 3fbe a3c5 00be
00000300: 363b 943b 6239 4f3d 1025 5bbc de3a 06be
00000310: e0b6 1c3e c74c f93d ddb9 6bbd abce 45bc
00000320: bf47 a0bd 8f05 54bd f0e5 f4bd ce6a 133e
00000330: 20b9 1f3e a75f 083d c57b ee3d fde5 eabc
00000340: 8e0f 573d be1b 643e d93b 943d 932d 193d
00000350: 9f1f 3bbd 4c3d 253d f574 c6bc 2419 d8bd
00000360: 0f52 2c3d aee5 2dbd caf6 023d a217 273e
00000370: 7dfe a5bd b579 afbd 6aa2 273c d039 153e
00000380: 3c77 f03c c82a e5bd c923 28bd 6e7f 2b3d
00000390: 03ec 81bd 8309 07be 5e20 bbbd 3a51 40bd
000003a0: e3df 0c3d dfd1 343e 9106 eb3d b163 923d
000003b0: 8468 24be 6d94 f9bd 4c24 1dbd 09a2 ad3d
000003c0: 7e8d 0d3b 6fc5 4e3d 98f2 b9bd 5f28 f83b
000003d0: e3a8 103e 983c 573d 3bb9 d0bd db0e 3ebd
000003e0: e4e0 c6b9 35b3 753e 513e 3cbe 3620 9cbd
000003f0: 0563 253e e193 d93d 7c05 ef3d 448f 57bd
-0.17532544 0.09404258 -0.12090566 -0.10066353 0.095677234 0.17208531 0.14514112 0.23831676
-0.09800903 0.08736615 0.16744372 -0.01470595 0.06626262 -0.011886183 -0.06463034 0.11240378
0.07257963 0.0555277 0.18181044 0.02682993 0.15509197 0.030809386 -0.022393024 0.096939825
0.12680736 0.00070508895 -0.0041279173 0.07540119 -0.09998609 -0.2466732 0.13042383 -0.1321166
0.05151917 0.05604764 -0.046487205 0.028697649 0.038029037 -0.0582696 -0.055716503 -0.08233596
0.07524839 0.08672484 -0.10033647 0.1135617 0.19197014 -0.068865776 -0.045610834 -0.009177661
-0.040495414 0.07192529 -0.07078099 0.065264836 0.046455808 0.028570611 -0.07797721 0.051855065
-0.043990564 0.08453165 0.01648477 -0.08047125 -0.008860882 0.084807806 -0.02370089 0.011630635
0.0033466346 -0.15487783 0.046239316 0.028076861 0.031860687 0.11185652 -0.08578859 0.006651771
0.07633073 -0.008052603 0.09892863 0.038189173 0.006058691 -0.04125998 -0.010735701 0.1400496
-0.02069752 0.07687591 0.02763385 0.11572421 0.0066932607 -0.010401503 -0.008276694 -0.013082854
-0.013455335 -0.08567364 0.0712015 0.17612566 -0.1071543 -0.085832 -0.17673185 -0.045794837
0.009144464 0.0034761864 -0.06777041 -0.017347863 -0.13198452 -0.17399473 -0.07064495 0.059945583
-0.048162483 -0.048161678 0.015853653 0.076512754 -0.004588287 0.14371686 0.05278044 -0.012942973
-0.0254761 0.053442135 -0.052589282 0.1322527 0.035781313 -0.025190251 -0.021220684 0.1143322
-0.036535505 0.05605228 0.051130366 0.02649494 0.069637775 -0.021182053 0.07527697 -0.045609728
0.16495356 -0.0266114 0.18702607 0.08517214 -0.04438928 -0.0069430424 -0.05082469 0.028145844
-0.17304079 0.115071766 -0.111205034 -0.081605054 -0.16038272 0.028398711 -0.036693 0.07843799
0.070152715 -0.014352958 -0.029971259 -0.087215275 0.003964498 -0.12837376 -0.19032092 -0.027086262
-0.009056463 0.09397827 0.13578424 0.027678581 -0.11040442 0.031387746 -0.0359071 -0.015357586
-0.052767426 0.0027632322 0.06553931 0.02692134 -0.024300221 0.10757787 -0.08525311 -0.0008934069
-0.07464498 -0.13158756 0.09487322 -0.008089646 0.068895124 0.008712869 -0.0480298 0.14547504
0.08611119 -0.03819146 -0.1400738 0.016320666 -0.01224544 -0.02945826 -0.12538062 -0.08025277
0.0012276508 0.04051694 0.03734994 0.035759322 0.097429164 0.08181008 -0.18668562 -0.12575392
0.00452366 0.050591834 -0.013375536 -0.13108394 0.15304136 0.12172847 -0.0575503 -0.012073199
-0.078261845 -0.051763114 -0.119579196 0.14396212 0.15597963 0.033294346 0.11644701 -0.02867412
0.05250507 0.22276208 0.072379775 0.03739698 -0.045684453 0.04034166 -0.024225691 -0.1055167
0.042070445 -0.042455368 0.031973638 0.16317609 -0.081051804 -0.08568136 0.010231594 0.14572835
0.02935373 -0.111898005 -0.041049752 0.041869573 -0.06343844 -0.13187222 -0.09137033 -0.046952464
0.034393203 0.17658184 0.11475862 0.07147921 -0.16055495 -0.12186513 -0.038364694 0.084781714
0.0021599228 0.050481256 -0.09079474 0.007573172 0.14126925 0.05254802 -0.1019158 -0.046400886
-0.0003793306 0.23994143 -0.18383147 -0.07623331 0.16151054 0.10623909 0.11670968 -0.052626863

network_body._body_endoder.seq_layers.2.bias f4 [128]
00000000: 0000 0000 0000 0000 0000 0000 0000 0000
00000010: 0000 0000 0000 0000 0000 0000 0000 0000
00000020: 0000 0000 0000 0000 0000 0000 0000 0000
00000030: 0000 0000 0000 0000 0000 0000 0000 0000
00000040: 0000 0000 0000 0000 0000 0000 0000 0000
00000050: 0000 0000 0000 0000 0000 0000 0000 0000
00000060: 0000 0000 0000 0000 0000 0000 0000 0000
00000070: 0000 0000 0000 0000 0000 0000 0000 0000
00000080: 0000 0000 0000 0000 0000 0000 0000 0000
00000090: 0000 0000 0000 0000 0000 0000 0000 0000
000000a0: 0000 0000 0000 0000 0000 0000 0000 0000
000000b0: 0000 0000 0000 0000 0000 0000 0000 0000
000000c0: 0000 0000 0000 0000 0000 0000 0000 0000
000000d0: 0000 0000 0000 0000 0000 0000 0000 0000
000000e0: 0000 0000 0000 0000 0000 0000 0000 0000
000000f0: 0000 0000 0000 0000 0000 0000 0000 0000
00000100: 0000 0000 0000 0000 0000 0000 0000 0000
00000110: 0000 0000 0000 0000 0000 0000 0000 0000
00000120: 0000 0000 0000 0000 0000 0000 0000 0000
00000130: 0000 0000 0000 0000 0000 0000 0000 0000
00000140: 0000 0000 0000 0000 0000 0000 0000 0000
00000150: 0000 0000 0000 0000 0000 0000 0000 0000
00000160: 0000 0000 0000 0000 0000 0000 0000 0000
00000170: 0000 0000 0000 0000 0000 0000 0000 0000
00000180: 0000 0000 0000 0000 0000 0000 0000 0000
00000190: 0000 0000 0000 0000 0000 0000 0000 0000
000001a0: 0000 0000 0000 0000 0000 0000 0000 0000
000001b0: 0000 0000 0000 0000 0000 0000 0000 0000
000001c0: 0000 0000 0000 0000 0000 0000 0000 0000
000001d0: 0000 0000 0000 0000 0000 0000 0000 0000
000001e0: 0000 0000 0000 0000 0000 0000 0000 0000
000001f0: 0000 0000 0000 0000 0000 0000 0000 0000
0.0 0.0 0.0 0.0 0.0 0.0 0.0 0.0
0.0 0.0 0.0 0.0 0.0 0.0 0.0 0.0
0.0 0.0 0.0 0.0 0.0 0.0 0.0 0.0
0.0 0.0 0.0 0.0 0.0 0.0 0.0 0.0
0.0 0.0 0.0 0.0 0.0 0.0 0.0 0.0
0.0 0.0 0.0 0.0 0.0 0.0 0.0 0.0
0.0 0.0 0.0 0.0 0.0 0.0 0.0 0.0
0.0 0.0 0.0 0.0 0.0 0.0 0.0 0.0
0.0 0.0 0.0 0.0 0.0 0.0 0.0 0.0
0.0 0.0 0.0 0.0 0.0 0.0 0.0 0.0
0.0 0.0 0.0 0.0 0.0 0.0 0.0 0.0
0.0 0.0 0.0 0.0 0.0 0.0 0.0 0.0
0.0 0.0 0.0 0.0 0.0 0.0 0.0 0.0
0.0 0.0 0.0 0.0 0.0 0.0 0.0 0.0
0.0 0.0 0.0 0.0 0.0 0.0 0.0 0.0
0.0 0.0 0.0 0.0 0.0 0.0 0.0 0.0

value_heads.value_heads.extrinsic.weight f4 [1, 128]
00000000: b83d 293e cc80 1b3e 34e5 20bd ca35 05be
00000010: ee41 91bd d816 293d 7611 8ebd d0c2 a2bd
00000020: d010 46bc 1881 873d 6015 eebd c423 0a3e
00000030: 20df 2f3d bbc7 e9bd 18aa dd3c 886e ec3c
00000040: ab73 28be 18f5 bf3d f08d 983d c00f a0bb
00000050: c0fe 993c 980e 1a3e aead 523e 304d f33d
00000060: e07a 1d3e 40bd f73d a87a 023e 281f 96bc
00000070: b817 c2bc 2a73 57be 8692 5c3e 2d4d bbbd
00000080: a0ab e9bd aa9c 343e b02e 8e3d 0ac9 15be
00000090: fb87 fabd 6083 de3c a75d ebbd 9e8b 3bbe
000000a0: d865 e3bc 293b 35be 1fdb 0abe 5027 36be
000000b0: 009c 58b9 12fe 3d3e 1a90 253e 100c 143d
000000c0: dcfe 0dbd 1843 8f3d 94a9 1f3e 4069 943c
000000d0: eeca 2a3e 4ae0 e1bd 2f4b c0bd 20cd c6bc
000000e0: 1cd9 e0bd 3c3a ea3d 602d e83d d358 28be
000000f0: 6ce9 02be e821 0d3e 66d4 243e 901f 42be
00000100: e8b2 95bc b2b5 a2bd e464 be3d 8885 f73d
00000110: 0cc6 92bd 066e c4bd a815 f23c 80c1 193b
00000120: 9861 cd3d 1cc8 f73d a04e bf3c 4e46 54be
00000130: 72f2 1cbe b8e8 ef3d ae7c 513e b8e0 0a3e
00000140: f25e 01be 4835 4d3d 1868 873c 7887 033e
00000150: 3083 8a3d de5f 013e 1a61 05be 5009 cbbd
00000160: 8c21 a13d e0a3 18bd 600a 49bd 5c36 213e
00000170: d8b7 e7bc e431 04bd 08bd 2c3e e0a8 173e
00000180: 247b 2cbe c568 46be a37f 59be 4061 593e
00000190: 14d7 d33d c023 1f3d 809c 8d3a 0048 e63b
000001a0: 2cbb 67bd 80d9 da3d 70db 353d 90ab 8e3d
000001b0: 9ed6 2cbe 8ea3 5a3e 56fa 99bd 2207 f0bd
000001c0: d417 11bd e4c2 56be e019 9b3d 88ef f83d
000001d0: e882 39be 29a2 54be 4027 7abd bcc7 32be
000001e0: 80ee c33a ca14 233e 647f 3d3e 1069 f4bd
000001f0: 48f3 073e 8145 54be a248 463e 76f2 05be
0.1652745 0.15185851 -0.039281085 -0.130088 -0.07092653 0.04128155 -0.06936924 -0.07947314
-0.012088969 0.066164196 -0.11625171 0.13490206 0.042937398 -0.11415049 0.027058646 0.0288613
-0.16450374 0.0937292 0.074489474 -0.00488469 0.018798232 0.1504463 0.20574066 0.11879957
0.15378904 0.120966434 0.12742102 -0.018325403 -0.02369295 -0.21040025 0.2154027 -0.091455795
-0.11409688 0.17637888 0.06942499 -0.14627472 -0.122329675 0.027162254 -0.11492472 -0.18314978
-0.027758524 -0.17698349 -0.1356015 -0.17788434 -0.0002065748 0.18553951 0.16168252 0.036144316
-0.03466688 0.06995219 0.15592033 0.018116593 0.16678974 -0.11029108 -0.0938934 -0.024267733
-0.1097891 0.114368886 0.113367796 -0.16440134 -0.12784356 0.13782465 0.16096649 -0.18957353
-0.018273786 -0.07944812 0.09296587 0.12086016 -0.07166681 -0.09591298 0.029551342 0.0023461282
0.1002838 0.12098715 0.023352921 -0.20729944 -0.1532686 0.117143095 0.20457718 0.13562286
-0.12633875 0.05009964 0.016529128 0.12844646 0.06763303 0.12634227 -0.13025323 -0.099138856
0.07867727 -0.03726566 -0.04908216 0.15743393 -0.028285906 -0.032274142 0.16868985 0.14810514
-0.1684385 -0.19375904 -0.21240096 0.21228504 0.10343757 0.038852453 0.0010804087 0.007027626
-0.056574985 0.10686016 0.044398725 0.06966317 -0.16878745 0.21351454 -0.07518451 -0.117201105
-0.035423115 -0.20972782 0.07573295 0.12155062 -0.18116343 -0.20764984 -0.061072588 -0.17459005
0.0014948398 0.15925899 0.18505627 -0.119341016 0.13276398 -0.20729639 0.19363645 -0.13080773
