results/BubbleBoomTrain2/AgentsController/checkpoint.pt (torch, 151925 bytes, 14 tensors)

discrete_act_size_vector f4 [1, 2]
0	0x40a00000	5.0
1	0x40000000	2.0

network_body._body_endoder.seq_layers.0.weight f4 [128, 5]
0	0xbe8070e4	-0.2508613
1	0x3f857126	1.0425155
2	0x3e22859a	0.15871277
3	0x3e2fd67b	0.17171662
4	0xbd493639	-0.049123976
5	0xbf230ec0	-0.6369438
6	0x3ef652bb	0.48109993
7	0x3d3e85e4	0.046514407
8	0x3f14ad42	0.5807687
9	0x3f18003c	0.5937536
10	0x3e640bda	0.22270146
11	0xbdf9740e	-0.12180339
12	0x3e4692ac	0.19391888
13	0x3e250ef2	0.16118982
14	0xbd41436d	-0.047183443
15	0xbce720bc	-0.028213851
16	0xbfa63dbb	-1.2987589
17	0x3f4402a8	0.76566553
18	0xbe0f739a	-0.14008942
19	0x3ef37965	0.47553554
20	0xbe2f108f	-0.1709616
21	0x3ec19da6	0.3781559
22	0x3e1b1d53	0.15147905
23	0xbbefe432	-0.007320904
24	0x3e7fcadc	0.24979728
25	0xbea921fd	-0.33033744
26	0x3f30f15b	0.6911828
27	0xbe36e88e	-0.1786215
28	0xbe4fbe53	-0.20287447
29	0xbdcf4ca3	-0.10122039
30	0x3f3d51dc	0.7395303
31	0x3ded7cc1	0.115960605
32	0xbe90cb9c	-0.28280342
33	0x3ea00118	0.31250834
34	0x3f91be53	1.1386207
35	0xbd293ca9	-0.041317616
36	0xbe80b58a	-0.25138503
37	0xbf6caf2c	-0.9245479
38	0xbdf2a7a5	-0.11848382
39	0x3f1efd2e	0.6210507
40	0x3f2ee9a9	0.6832529
41	0x3d928d85	0.07155899
42	0xbe68a4d3	-0.22719125
43	0xbf079bfd	-0.52972394
44	0x3d3b7b20	0.045771718
45	0x3f2c9a2c	0.6742275
46	0xbd1b5aa7	-0.03792825
47	0x3f1fcbc9	0.62420326
48	0xbe58a906	-0.21158227
49	0x3e952002	0.29125983
50	0x3eb5e83e	0.3552875
51	0x3e9d0808	0.3067019
52	0x3eab848f	0.33499572
53	0xbdc79be8	-0.09746534
54	0x3f3c493f	0.73549265
55	0x3daad76f	0.08341872
56	0xbe0e43e5	-0.13893087
57	0xbe8b82f8	-0.2724836
58	0xbf20591f	-0.6263599
59	0x3f1a9f17	0.60399
60	0x3eb69f3c	0.3566836
61	0xbe053452	-0.1300824
62	0xbee21852	-0.4415918
63	0xbd74b658	-0.05974421
64	0xbf03e679	-0.5152355
65	0xbe4fcc6f	-0.20292829
66	0x3f58f597	0.8474974
67	0xbe01746a	-0.12642065
68	0x3eb2f480	0.34952164
69	0xbeb5838d	-0.35451928
70	0x3e91c76a	0.28472453
71	0xbec739f0	-0.3891139
72	0x3f4c5f27	0.7983269
73	0x3fc52b68	1.5403872
74	0x3e617f0b	0.2202112
75	0xbe1d8936	-0.15384373
76	0xbeaa7bc0	-0.3329754
77	0xbddc188a	-0.10746868
78	0x3e2073d2	0.15669182
79	0x3f533d9a	0.8251587
80	0x3e7b048c	0.24513453
81	0xbe5dbc1f	-0.21653794
82	0xbdedbaad	-0.11607871
83	0x3c89255c	0.016741447
84	0x3f0e90ab	0.55689496
85	0x3e5068f1	0.20352532
86	0xbf0683d7	-0.5254492
87	0xbf4aed28	-0.7926812
88	0x3f2bc394	0.67095304
89	0xbef9da94	-0.48799574
90	0xbd860789	-0.06544406
91	0xbf87c465	-1.060681
92	0x3e89549a	0.26822358
93	0xbf1ee312	-0.6206523
94	0x3f0e1983	0.5550768
95	0x3eafe67b	0.3435553
96	0x3f15170a	0.5823828
97	0xbe76d45e	-0.24104449
98	0xbec40161	-0.38282302
99	0x3d55658f	0.052098807
100	0xbeaac643	-0.33354387
101	0xbf00888a	-0.5020834
102	0xbea10aa5	-0.31453434
103	0xbe653bcf	-0.22386096
104	0xbe3f5ffe	-0.18688962
105	0x3e75e7be	0.24014184
106	0xbf1c2833	-0.6099884
107	0xbe934504	-0.28763592
108	0x3eeeda39	0.46650866
109	0xbec55828	-0.3854382
110	0x3e83eb5a	0.25765496
111	0x3e829a5c	0.25508392
112	0xbf69b2ba	-0.9128834
113	0xbea8ca11	-0.32966664
114	0x3f81502c	1.0102592
115	0xbeae305d	-0.34021273
116	0x3e79a68a	0.24379936
117	0x3eee737f	0.46572492
118	0x3e6a4a21	0.2287984
119	0x3f258f5f	0.6467189
120	0xbe21cb39	-0.1580018
121	0x3ed16e6f	0.40904567
122	0x3f423028	0.7585473
123	0xbe065985	-0.13120086
124	0xbefd60bf	-0.49487874
125	0x3e35af27	0.17742597
126	0x3d4f28bc	0.050575957
127	0xbed93716	-0.4242484
128	0x3e17e6a9	0.14834084
129	0x3f00f374	0.5037148
130	0x3ef8a561	0.48563674
131	0x3efad4b7	0.48990414
132	0x3dd04a1e	0.10170387
133	0xbda7be2c	-0.08190569
134	0x3d28bf0c	0.04119782
135	0xbe343eb5	-0.17602046
136	0x3e50e854	0.20401126
137	0x3e11f2ab	0.14252727
138	0x3edc2ad0	0.43001413
139	0x3ed62684	0.4182626
140	0x3ec90f25	0.39269367
141	0x3e910eec	0.28331697
142	0x3f142407	0.57867473
143	0x3ee294a8	0.4425404
144	0xbc1814dd	-0.009282318
145	0xbf125e85	-0.57175475
146	0x3e01b45f	0.12666462
147	0x3e87d0bf	0.26526448
148	0x3c9ba1e5	0.018998096
149	0xbe155c02	-0.1458588
150	0x3e24c41b	0.16090433
151	0xbdf7fbf6	-0.121086046
152	0x3dc62126	0.09674291
153	0x3f13fcc1	0.57807547
154	0x3f61334c	0.879689
155	0xbb903ec1	-0.004402012
156	0x3eda55db	0.42643628
157	0xbead9afa	-0.339073
158	0x3d320925	0.043465752
159	0xbed59952	-0.41718537
160	0xbee49f05	-0.44652572
161	0x3e530ec1	0.20611097
162	0x3cc3cdb3	0.023901796
163	0xbf1c8988	-0.61147356
164	0xbe91bac8	-0.28462815
165	0x3d347f2b	0.04406659
166	0x3e47ff69	0.19531025
167	0x3c1622bc	0.009163555
168	0xbe465d08	-0.19371426
169	0xbe696c73	-0.22795276
170	0xbf16e83e	-0.58948123
171	0xbf0d1b0f	-0.55119413
172	0xbef81814	-0.4845587
173	0xbfa4fa37	-1.288886
174	0xbea958ef	-0.33075663
175	0xbe8ca1b7	-0.2746713
176	0x3f17f50a	0.59358275
177	0x3dff6e6f	0.124722354
178	0x3eff6995	0.4988524
179	0xbe7c719d	-0.24652715
180	0xbf10c5e0	-0.56551933
181	0x3d86e171	0.06585968
182	0xbf08a9b3	-0.5338394
183	0x3f19273f	0.5982551
184	0xbea0bb1e	-0.3139276
185	0x3d8f0206	0.06982808
186	0xbe20f075	-0.15716727
187	0xbf7de741	-0.9918099
188	0x3f19bc10	0.60052586
189	0x3e996b59	0.29964712
190	0x3e265650	0.16243863
191	0x3ee894a6	0.4542591
192	0xbda3f0eb	-0.08004936
193	0x3d446615	0.047948916
194	0xbe4be6a7	-0.19912206
195	0x3f608bfb	0.87713593
196	0x3ed92f9b	0.42419133
197	0xbf891a93	-1.0711235
198	0xbf3dff35	-0.7421754
199	0x3eda3c7a	0.42624265
200	0x3d1776c6	0.036978506
201	0x3e441c1f	0.19151352
202	0xbe70fc90	-0.23533845
203	0x3c08e413	0.008355158
204	0x3f0871c2	0.5329858
205	0xbf1c43b0	-0.6104078
206	0xbef752c6	-0.4830534
207	0x3f0cd0f6	0.5500635
208	0x3d49e973	0.0492949
209	0xbec8d9ab	-0.39228567
210	0x3f21ff1c	0.6327989
211	0x3f065a67	0.52481693
212	0x3f115ac7	0.5677914
213	0x3e24c97f	0.1609249
214	0xbf00469a	-0.5010773
215	0x3f7c4a96	0.9855131
216	0x3ea6878f	0.32525298
217	0x3f68a02d	0.9086941
218	0x3f6b6981	0.9195786
219	0xbeac215c	-0.336192
220	0xbf56a73e	-0.8384894
221	0xbce8e476	-0.028429251
222	0x3e44ef66	0.19231948
223	0x3e7ca3e6	0.24671897
224	0xbec76568	-0.38944554
225	0xbe8a74e2	-0.270423
226	0x3edd7bd0	0.43258524
227	0x3d5e53e3	0.05427922
228	0xbe209b18	-0.15684164
229	0xbe870b64	-0.26375878
230	0x3e674d10	0.22587991
231	0xbded1080	-0.11575413
232	0x3d526670	0.051367223
233	0xbf2209ec	-0.6329639
234	0x3e0b5443	0.13606362
235	0xbe51133a	-0.2041749
236	0x3ed1d68f	0.40984008
237	0x3e901b84	0.28145993
238	0xbecd8a40	-0.4014454
239	0xbd7a2005	-0.061065692
240	0x3ea6f24b	0.3260673
241	0xbe7880e5	-0.2426792
242	0x3ed1dba9	0.409879
243	0xbe83da21	-0.25752357
244	0x3f50b3c3	0.81524295
245	0x3da2bf92	0.079466954
246	0xbe245cc0	-0.16051006
247	0x3db26b32	0.08711852
248	0x3f343a0e	0.70401084
249	0x3d92e2d0	0.07172167
250	0xbe4d8749	-0.20071138
251	0xbeeb221e	-0.45924467
252	0x3e9a6b96	0.30160207
253	0x3e6e3b93	0.23264913
254	0xbed79075	-0.421024
255	0xbedfb58f	-0.43693206

network_body._body_endoder.seq_layers.0.bias f4 [128]
0	0x00000000	0.0
1	0x00000000	0.0
2	0x00000000	0.0
3	0x00000000	0.0
4	0x00000000	0.0
5	0x00000000	0.0
6	0x00000000	0.0
7	0x00000000	0.0
8	0x00000000	0.0
9	0x00000000	0.0
10	0x00000000	0.0
11	0x00000000	0.0
12	0x00000000	0.0
13	0x00000000	0.0
14	0x00000000	0.0
15	0x00000000	0.0
16	0x00000000	0.0
17	0x00000000	0.0
18	0x00000000	0.0
19	0x00000000	0.0
20	0x00000000	0.0
21	0x00000000	0.0
22	0x00000000	0.0
23	0x00000000	0.0
24	0x00000000	0.0
25	0x00000000	0.0
26	0x00000000	0.0
27	0x00000000	0.0
28	0x00000000	0.0
29	0x00000000	0.0
30	0x00000000	0.0
31	0x00000000	0.0
32	0x00000000	0.0
33	0x00000000	0.0
34	0x00000000	0.0
35	0x00000000	0.0
36	0x00000000	0.0
37	0x00000000	0.0
38	0x00000000	0.0
39	0x00000000	0.0
40	0x00000000	0.0
41	0x00000000	0.0
42	0x00000000	0.0
43	0x00000000	0.0
44	0x00000000	0.0
45	0x00000000	0.0
46	0x00000000	0.0
47	0x00000000	0.0
48	0x00000000	0.0
49	0x00000000	0.0
50	0x00000000	0.0
51	0x00000000	0.0
52	0x00000000	0.0
53	0x00000000	0.0
54	0x00000000	0.0
55	0x00000000	0.0
56	0x00000000	0.0
57	0x00000000	0.0
58	0x00000000	0.0
59	0x00000000	0.0
60	0x00000000	0.0
61	0x00000000	0.0
62	0x00000000	0.0
63	0x00000000	0.0
64	0x00000000	0.0
65	0x00000000	0.0
66	0x00000000	0.0
67	0x00000000	0.0
68	0x00000000	0.0
69	0x00000000	0.0
70	0x00000000	0.0
71	0x00000000	0.0
72	0x00000000	0.0
73	0x00000000	0.0
74	0x00000000	0.0
75	0x00000000	0.0
76	0x00000000	0.0
77	0x00000000	0.0
78	0x00000000	0.0
79	0x00000000	0.0
80	0x00000000	0.0
81	0x00000000	0.0
82	0x00000000	0.0
83	0x00000000	0.0
84	0x00000000	0.0
85	0x00000000	0.0
86	0x00000000	0.0
87	0x00000000	0.0
88	0x00000000	0.0
89	0x00000000	0.0
90	0x00000000	0.0
91	0x00000000	0.0
92	0x00000000	0.0
93	0x00000000	0.0
94	0x00000000	0.0
95	0x00000000	0.0
96	0x00000000	0.0
97	0x00000000	0.0
98	0x00000000	0.0
99	0x00000000	0.0
100	0x00000000	0.0
101	0x00000000	0.0
102	0x00000000	0.0
103	0x00000000	0.0
104	0x00000000	0.0
105	0x00000000	0.0
106	0x00000000	0.0
107	0x00000000	0.0
108	0x00000000	0.0
109	0x00000000	0.0
110	0x00000000	0.0
111	0x00000000	0.0
112	0x00000000	0.0
113	0x00000000	0.0
114	0x00000000	0.0
115	0x00000000	0.0
116	0x00000000	0.0
117	0x00000000	0.0
118	0x00000000	0.0
119	0x00000000	0.0
120	0x00000000	0.0
121	0x00000000	0.0
122	0x00000000	0.0
123	0x00000000	0.0
124	0x00000000	0.0
125	0x00000000	0.0
126	0x00000000	0.0
127	0x00000000	0.0

network_body._body_endoder.seq_layers.2.weight f4 [128, 128]
0	0xbc92b0ea	-0.017906625
1	0x3d5757bc	0.052573904
2	0x3d9bee5d	0.076138236
3	0xbd9ec5cf	-0.07752573
4	0xbddacc94	-0.106835514
5	0xbd544a1c	-0.05182849
6	0x3e388e36	0.18022999
7	0x3c52bb42	0.012862029
8	0x3d172d4f	0.036908444
9	0x3d6f25de	0.058385722
10	0x3da1f647	0.07908302
11	0xbc1ec0d4	-0.0096895285
12	0x3dc3157e	0.09525584
13	0xbdf78b0b	-0.12087067
14	0x3d55c630	0.05219096
15	0x3cf7384f	0.030178217
16	0xbd3ae726	-0.045630597
17	0xbd2db183	-0.042405616
18	0xbcb002e6	-0.021485757
19	0x3dc229dc	0.0948064
20	0x3d25cc30	0.04047793
21	0xbd131621	-0.035909776
22	0x3dd68567	0.10474663
23	0x3df35d1b	0.11882993
24	0xbddb6b11	-0.10713781
25	0x3d4a5a14	0.04940231
26	0x3dc0a0a0	0.09405637
27	0x3d2d3017	0.04228219
28	0x3d915412	0.07096113
29	0x3dd2be02	0.10290147
30	0xbd65aa62	-0.056070693
31	0xbcd729a2	-0.02626497
32	0x3be99291	0.007128068
33	0x3d11a5bc	0.035558447
34	0xbdba78af	-0.0910505
35	0x3e89cbfd	0.26913443
36	0x3e1e44af	0.15455888
37	0x3d94cda6	0.07265787
38	0x3d027252	0.031847306
39	0xbd864e2b	-0.06557878
40	0xbd8e96a6	-0.06962328
41	0x3ce82875	0.028339604
42	0x3e1b548f	0.15168975
43	0xbcac6d39	-0.021048175
44	0xbded62ce	-0.11591111
45	0xbd6efa70	-0.058344305
46	0xbe1b2eb5	-0.15154536
47	0xbd2f39a3	-0.042779576
48	0x3ca0dc09	0.019636171
49	0x3e262351	0.1622441
50	0xbcda9d56	-0.026686352
51	0xbe045cb9	-0.12925996
52	0xbe026827	-0.12735043
53	0x3cb7d6d7	0.02244131
54	0x3da57c89	0.08080394
55	0xbdb9dbf0	-0.09075153
56	0x3d984b84	0.074362785
57	0x3de567de	0.11201452
58	0x3db655bd	0.08903072
59	0x3d0c75d4	0.034292057
60	0x3c577f56	0.013152918
61	0x3dc31f12	0.095274106
62	0x3d1487db	0.036262374
63	0x3d461879	0.048363183
64	0xbda4fca7	-0.08056002
65	0x3d65b367	0.056079295
66	0xbc92b2ba	-0.01790749
67	0x3cc1b81e	0.023647364
68	0xbd80cc60	-0.062889814
69	0xbdd955f9	-0.10612101
70	0xbd54b493	-0.05193002
71	0x3e056665	0.13027342
72	0xbd123229	-0.035692368
73	0xbd016355	-0.03158887
74	0x3e597c66	0.2123886
75	0xbd0de7e1	-0.034644965
76	0xbcb9ac46	-0.022665154
77	0xbafb79c7	-0.0019186073
78	0xbdbbe956	-0.09175365
79	0xbbffe192	-0.0078088725
80	0xbc9a2911	-0.01881841
81	0x3c3864c5	0.011254494
82	0x3dfa0250	0.12207472
83	0x3d87e75c	0.06635925
84	0xbd754add	-0.05988585
85	0xbc53a8b9	-0.012918645
86	0x3d2ddd62	0.042447455
87	0x3c467cc2	0.0121147055
88	0xbe1ac339	-0.15113534
89	0xbc071ff4	-0.008247364
90	0x3d78e368	0.060763747
91	0x3d6174d8	0.05504307
92	0x3d1697dc	0.036765918
93	0xbd1dc5bd	-0.038518656
94	0x3c7abcfe	0.015303848
95	0xbc8d9f44	-0.017287858
96	0x3daa0b09	0.08302886
97	0x3d92dbe6	0.071708485
98	0xbdda84e0	-0.10669875
99	0xbdc5fe4c	-0.09667644
100	0x3b8a7ddc	0.0042264294
101	0xbe69e512	-0.2284129
102	0x3b91e19f	0.004451945
103	0x3e16e6b1	0.1473644
104	0x3a7f23f6	0.00097328366
105	0x3e63206c	0.22180337
106	0x3e29f928	0.16598952
107	0xbd2818d2	-0.041039295
108	0xbd09c4df	-0.033635017
109	0x3df4deb6	0.11956541
110	0x3dc260c7	0.09491115
111	0x3db67eff	0.08910941
112	0xbdf270b6	-0.11837904
113	0xbdb438b5	-0.087998785
114	0xbe123316	-0.142773
115	0x3d01f71c	0.031729802
116	0xbdc0416d	-0.09387479
117	0x3d76c2e0	0.06024444
118	0x3b3f70dd	0.002921156
119	0xbbb0c82d	-0.0053949566
120	0x3c01bf82	0.007919194
121	0xbe4cc61a	-0.19997445
122	0x3de06a06	0.10957722
123	0x3d8c436a	0.06848796
124	0xbdba6954	-0.09102121
125	0xbce68383	-0.028138882
126	0xbdcb5213	-0.09927764
127	0x3dd78dd5	0.10525099
128	0x3cf284cf	0.029604344
129	0x3d9302c3	0.07178261
130	0x39743ca8	0.0002329225
131	0xbdc0739a	-0.09397049
132	0x3d7dbc80	0.061947346
133	0xbc01a139	-0.007911974
134	0x3d7cb089	0.061691795
135	0x3e079438	0.13240135
136	0xbd74c92f	-0.059762176
137	0xbdf3c635	-0.11903039
138	0xbda8f4b3	-0.08249798
139	0x3ce413f2	0.027841542
140	0xbca4faa4	-0.020139046
141	0x3df31902	0.11870004
142	0x3cd0de74	0.025496699
143	0xbd6f1214	-0.05836685
144	0xbd3c8b46	-0.04603126
145	0xbd19b13e	-0.037522547
146	0xbd5f7191	-0.054551665
147	0x3cf3dde3	0.02976889
148	0x3d8f6f4d	0.07003651
149	0x3d0131d9	0.03154168
150	0xb88a7b55	-6.603325e-05
151	0xbd4014c6	-0.04689481
152	0x3e013ca6	0.12620792
153	0xbc8041f5	-0.01565645
154	0xbd8abd1d	-0.06774352
155	0xbe5b79a2	-0.21433118
156	0xbe47b455	-0.19502385
157	0xbc4fa46a	-0.012673477
158	0xbdb109c1	-0.086444385
159	0xbce76f51	-0.028251322
160	0xbc93025b	-0.01794546
161	0x3e510859	0.2041334
162	0x3de5b255	0.11215655
163	0x3db03a6b	0.08604892
164	0x3e3002e6	0.17188606
165	0xbc832e05	-0.016013155
166	0xbd006727	-0.031348374
167	0xbd553deb	-0.052061003
168	0x3d1a1d2a	0.03762547
169	0x3d85b7b4	0.06529179
170	0xbc82a5ec	-0.015948258
171	0xbda76fb8	-0.081756055
172	0xba290af8	-0.0006448473
173	0x3d4dea3b	0.050272208
174	0x3cbd1b1b	0.023084214
175	0xbd5b25d7	-0.053502884
176	0xbd617d37	-0.055051055
177	0x3e2b4057	0.16723762
178	0xbcf3847d	-0.029726261
179	0x3c27ca9a	0.010241175
180	0x3c997d37	0.018736465
181	0xbdeec300	-0.11658287
182	0xbd95fef3	-0.07324018
183	0xbd5d42e7	-0.05401888
184	0x3c60564e	0.013692452
185	0x3c3b5602	0.01143408
186	0x3d1c5c8e	0.038174205
187	0xb9f31692	-0.00046365388
188	0xbd27795c	-0.04088722
189	0xbb371b75	-0.002793995
190	0xbd8dd6b5	-0.06925718
191	0xbdcfa026	-0.10137968
192	0xbdaff8ef	-0.08592402
193	0xbd7123a4	-0.05887188
194	0xbbb443ca	-0.005501245
195	0xbd9c8baf	-0.0764383
196	0xbd1735cb	-0.036916535
197	0x3d9492a8	0.07254535
198	0xbd948b3a	-0.07253118
199	0xbc7a664a	-0.015283177
200	0xbe11e806	-0.14248666
201	0x3e23317a	0.15936843
202	0x3daebf66	0.085326
203	0x3d1370b2	0.035996147
204	0x3e694c8f	0.22783111
205	0x3d690b24	0.05689539
206	0x3db45a0e	0.08806239
207	0x3dcbff71	0.09960831
208	0xbe1d9186	-0.15387544
209	0x3d45a71d	0.048255075
210	0xbd27043d	-0.040775526
211	0xbe0ec241	-0.1394129
212	0xbd529681	-0.051413063
213	0xbbca8440	-0.006180316
214	0x3e48ed51	0.19621779
215	0xbd8993c1	-0.06717635
216	0xbe071c5b	-0.1319441
217	0x3da32519	0.0796606
218	0x3cb2c682	0.021823172
219	0xbadf7ddc	-0.0017051059
220	0x3e29e89e	0.16592643
221	0x3d970dd4	0.073756844
222	0xbda02c6b	-0.07820972
223	0x3dac2574	0.08405581
224	0xbd70fe9e	-0.058836572
225	0xbd990a6d	-0.07472692
226	0x3de0cc5f	0.10976481
227	0x3dad2ba9	0.08455593
228	0xbcfee104	-0.031113155
229	0x3dff420f	0.124637716
230	0x3de176d7	0.11008995
231	0xbd8a2914	-0.06746116
232	0xbd4e32ec	-0.05034153
233	0xbc44b766	-0.012006616
234	0xbc84ffe2	-0.016235296
235	0xbdaab854	-0.08335939
236	0x3e71b854	0.23605472
237	0xbd31c2a8	-0.04339853
238	0x3d459344	0.048236147
239	0xbe3bcfc9	-0.18340982
240	0xbd186e8d	-0.037214804
241	0x3cfa36e0	0.030543745
242	0x3b510252	0.0031892252
243	0xbe06af0e	-0.13152716
244	0x3db526ff	0.088453285
245	0xbcb4a670	-0.02205202
246	0xbbabb678	-0.005240258
247	0x3d4094d8	0.04701695
248	0x3dce9c65	0.10088424
249	0xbe1a229f	-0.1505227
250	0x3e4c13f3	0.19929485
251	0xbe137c9e	-0.14403006
252	0xbca9fdbb	-0.02075087
253	0x3da4efa3	0.080535196
254	0x3b9c9653	0.004778662
255	0xbe00d8e5	-0.12582739

network_body._body_endoder.seq_layers.2.bias f4 [128]
0	0x00000000	0.0
1	0x00000000	0.0
2	0x00000000	0.0
3	0x00000000	0.0
4	0x00000000	0.0
5	0x00000000	0.0
6	0x00000000	0.0
7	0x00000000	0.0
8	0x00000000	0.0
9	0x00000000	0.0
10	0x00000000	0.0
11	0x00000000	0.0
12	0x00000000	0.0
13	0x00000000	0.0
14	0x00000000	0.0
15	0x00000000	0.0
16	0x00000000	0.0
17	0x00000000	0.0
18	0x00000000	0.0
19	0x00000000	0.0
20	0x00000000	0.0
21	0x00000000	0.0
22	0x00000000	0.0
23	0x00000000	0.0
24	0x00000000	0.0
25	0x00000000	0.0
26	0x00000000	0.0
27	0x00000000	0.0
28	0x00000000	0.0
29	0x00000000	0.0
30	0x00000000	0.0
31	0x00000000	0.0
32	0x00000000	0.0
33	0x00000000	0.0
34	0x00000000	0.0
35	0x00000000	0.0
36	0x00000000	0.0
37	0x00000000	0.0
38	0x00000000	0.0
39	0x00000000	0.0
40	0x00000000	0.0
41	0x00000000	0.0
42	0x00000000	0.0
43	0x00000000	0.0
44	0x00000000	0.0
45	0x00000000	0.0
46	0x00000000	0.0
47	0x00000000	0.0
48	0x00000000	0.0
49	0x00000000	0.0
50	0x00000000	0.0
51	0x00000000	0.0
52	0x00000000	0.0
53	0x00000000	0.0
54	0x00000000	0.0
55	0x00000000	0.0
56	0x00000000	0.0
57	0x00000000	0.0
58	0x00000000	0.0
59	0x00000000	0.0
60	0x00000000	0.0
61	0x00000000	0.0
62	0x00000000	0.0
63	0x00000000	0.0
64	0x00000000	0.0
65	0x00000000	0.0
66	0x00000000	0.0
67	0x00000000	0.0
68	0x00000000	0.0
69	0x00000000	0.0
70	0x00000000	0.0
71	0x00000000	0.0
72	0x00000000	0.0
73	0x00000000	0.0
74	0x00000000	0.0
75	0x00000000	0.0
76	0x00000000	0.0
77	0x00000000	0.0
78	0x00000000	0.0
79	0x00000000	0.0
80	0x00000000	0.0
81	0x00000000	0.0
82	0x00000000	0.0
83	0x00000000	0.0
84	0x00000000	0.0
85	0x00000000	0.0
86	0x00000000	0.0
87	0x00000000	0.0
88	0x00000000	0.0
89	0x00000000	0.0
90	0x00000000	0.0
91	0x00000000	0.0
92	0x00000000	0.0
93	0x00000000	0.0
94	0x00000000	0.0
95	0x00000000	0.0
96	0x00000000	0.0
97	0x00000000	0.0
98	0x00000000	0.0
99	0x00000000	0.0
100	0x00000000	0.0
101	0x00000000	0.0
102	0x00000000	0.0
103	0x00000000	0.0
104	0x00000000	0.0
105	0x00000000	0.0
106	0x00000000	0.0
107	0x00000000	0.0
108	0x00000000	0.0
109	0x00000000	0.0
110	0x00000000	0.0
111	0x00000000	0.0
112	0x00000000	0.0
113	0x00000000	0.0
114	0x00000000	0.0
115	0x00000000	0.0
116	0x00000000	0.0
117	0x00000000	0.0
118	0x00000000	0.0
119	0x00000000	0.0
120	0x00000000	0.0
121	0x00000000	0.0
122	0x00000000	0.0
123	0x00000000	0.0
124	0x00000000	0.0
125	0x00000000	0.0
126	0x00000000	0.0
127	0x00000000	0.0

action_model._discrete_distribution.branches.0.weight f4 [5, 128]
0	0xbc29fcf7	-0.010375253
1	0xbc65bf5d	-0.014022675
2	0x3b2e0eee	0.0026559192
3	0x3bf7dd0a	0.0075641917
4	0xbc4c33c3	-0.012463513
5	0xbb509915	-0.0031829525
6	0x3c9eb027	0.019371105
7	0xbbe69b33	-0.007037544
8	0xba0fd87c	-0.0005487276
9	0x3c69437b	0.01423728
10	0x3c3bdefe	0.01146674
11	0x3c65498d	0.013994587
12	0x3b64ed53	0.0034931495
13	0x3a97cf5b	0.0011582182
14	0x3bc6af27	0.0060633603
15	0xbae2d56a	-0.0017306034
16	0xbb207bbd	-0.0024487816
17	0x3be2a95b	0.0069171614
18	0x3c0edc0b	0.0087194545
19	0x3b89da07	0.004206899
20	0x3bb15389	0.0054115695
21	0x3bfb40d3	0.0076676398
22	0xbc6f3282	-0.014599444
23	0xbc758258	-0.01498469
24	0x3a9c7055	0.0011935333
25	0xbbfa9848	-0.007647548
26	0x3b59448f	0.0033152436
27	0x3ca141af	0.01968464
28	0x3c41e788	0.0118349865
29	0x3b03ca2c	0.0020109517
30	0xbc63549d	-0.013875154
31	0xbc1a7d50	-0.009429291
32	0x3b95b497	0.004568647
33	0xbc58085b	-0.013185586
34	0x3c10b3c5	0.008831923
35	0xbaa424b7	-0.0012523149
36	0x3bd888b0	0.0066080913
37	0x3c0803a2	0.008301647
38	0xbba741a0	-0.0051042587
39	0xbbeb84bd	-0.0071874545
40	0x3bef0197	0.0072938907
41	0x3be55f7d	0.0069999085
42	0x3c0be349	0.008538076
43	0xbc43ed17	-0.011958382
44	0xbc2e8c25	-0.01065353
45	0x3bfd43c7	0.007729027
46	0xbbf26dc2	-0.007398338
47	0x3b7198b0	0.003686469
48	0x3bbeba11	0.0058205207
49	0x397401b7	0.00023270292
50	0xbb63a042	-0.0034732972
51	0xbba6dea4	-0.005092459
52	0x3c106d80	0.008815169
53	0x3b8ab4e8	0.0042329915
54	0x3b842bdf	0.00403355
55	0x3b013a11	0.0019718448
56	0x3c33ca04	0.010973457
57	0xbc3fb290	-0.011700287
58	0x3b99ace8	0.0046898015
59	0xbb7f1958	-0.0038925018
60	0xbb20f93b	-0.0024562615
61	0xbc15a339	-0.009133154
62	0xbb2c18f3	-0.0026259988
63	0x3ca65bfa	0.02030753
64	0x3ba93b5f	0.0051645483
65	0x3be9f50f	0.007139809
66	0xb9aea591	-0.00033311223
67	0x3c12bfa0	0.00895682
68	0x3b24d14a	0.002514916
69	0x39655f4b	0.00021874641
70	0xbba20bdb	-0.004945261
71	0x3c003ee2	0.007827492
72	0x3c2fde57	0.010734162
73	0x3baa0329	0.005188365
74	0xbc764b22	-0.0150325615
75	0x3a1bbd99	0.0005941033
76	0xbbf2853a	-0.0074011358
77	0x3b9d55ca	0.0048014866
78	0x3c957597	0.018244548
79	0xbc0784f3	-0.008271444
80	0x3a623bb8	0.00086301146
81	0xbbcfdc4f	-0.0063434015
82	0x3b2df0d7	0.0026541257
83	0x3bb29497	0.005449842
84	0x3b3af27c	0.002852588
85	0xbb2b783a	-0.002616419
86	0x3c9b6901	0.018970968
87	0xbb98153f	-0.0046412046
88	0x3b3f67b0	0.002920609
89	0xbb648c30	-0.0034873597
90	0xbb59c778	-0.0033230465
91	0x3b9ea32f	0.0048412303
92	0x3b2b793a	0.0026164786
93	0x3b85e75c	0.004086418
94	0x3aea202a	0.0017862369
95	0xbb3f9dbc	-0.0029238304
96	0x3b17946d	0.002312924
97	0x3a963bf4	0.0011461959
98	0x3c37ba4b	0.011213849
99	0x3ac31cbd	0.0014885884
100	0x3aa18a8f	0.0012324619
101	0x3c321543	0.010869327
102	0x3bddd380	0.0067695975
103	0x3b6c0e88	0.0036019403
104	0xbb85c547	-0.004082355
105	0x39c9b450	0.0003847205
106	0xbb6b9562	-0.0035947193
107	0xbb719e72	-0.0036868122
108	0xb9ff58a3	-0.0004870343
109	0x3b34e662	0.002760314
110	0xbbd6b3d2	-0.006552198
111	0xba7035eb	-0.0009163308
112	0x3afefd85	0.0019454217
113	0x3ca5cde9	0.020239787
114	0xbc2c1347	-0.010502643
115	0xbc920975	-0.017826775
116	0x3c48270f	0.012216344
117	0xbbc17b22	-0.005904571
118	0x3c544df7	0.012958041
119	0xb998e2f4	-0.00029160792
120	0x3b9977d9	0.0046834764
121	0x3bb5dcab	0.0055499873
122	0xbb0c89bd	-0.0021444403
123	0xbb8089a7	-0.0039226594
124	0xbb9012a3	-0.004396753
125	0xbbe6b407	-0.007040504
126	0xbb1ed0f9	-0.0024233444
127	0xbc00cab7	-0.007860831
128	0x3bc652af	0.006052337
129	0x3af27535	0.0018498065
130	0x3bcf9803	0.00633526
131	0xbc1fbc54	-0.009749491
132	0x3c858793	0.016299998
133	0x3c6c2235	0.0144124525
134	0xbb2859b8	-0.0025688242
135	0x3b6777dd	0.0035319247
136	0xbb7e3583	-0.003878922
137	0x3c6a7e1f	0.014312296
138	0xbb2266b3	-0.0024780452
139	0xbc032987	-0.008005506
140	0xbc87aab3	-0.016560888
141	0xbbf26d32	-0.007398271
142	0xbbdbc1b0	-0.006706439
143	0x3c5d44f2	0.013505207
144	0xbbe39b78	-0.0069460236
145	0x3ac60180	0.0015106648
146	0xbcad301f	-0.02114111
147	0xbaade50f	-0.0013267117
148	0x3c0495ed	0.008092386
149	0xbb937c4b	-0.004500901
150	0x3a93c035	0.0011272492
151	0xbc1b827b	-0.009491558
152	0x3c4ee07b	0.0126267625
153	0x3b81544a	0.0039468156
154	0x3b826f35	0.003980542
155	0xbbe4274a	-0.0069626914
156	0x3ad68432	0.0016366302
157	0x3bd42dc7	0.0064751836
158	0x3c125ce3	0.008933279
159	0x39c4a99d	0.00037510405
160	0xbb5f5d5f	-0.0034082753
161	0xbb32cb81	-0.0027281942
162	0x3bec904b	0.0072193495
163	0x3be17dfa	0.0068814727
164	0x3b708243	0.0036698736
165	0xbb117ec1	-0.0022200795
166	0xbc7774c3	-0.015103522
167	0x3b8e93c9	0.0043511135
168	0x3ba419b9	0.005007949
169	0xbc8a9e11	-0.016921075
170	0x3c4b5407	0.01241017
171	0xbb8c0f8b	-0.004274314
172	0xbb03f9de	-0.0020137946
173	0xbb9875ca	-0.0046527134
174	0xbbcc670e	-0.006237871
175	0x3bfc49d0	0.007699229
176	0x3be04aba	0.0068448456
177	0x3bd7d4a7	0.0065866294
178	0x3c7381cd	0.01486249
179	0xbb20a7dd	-0.0024514117
180	0x3b819666	0.0039546965
181	0x3c348b97	0.011019609
182	0xbb75b812	-0.0037493748
183	0xbafe9b0a	-0.0019424867
184	0x3c3ad993	0.011404413
185	0x3c67f472	0.014157401
186	0x3c5b3eef	0.013381704
187	0x3c019539	0.007909113
188	0xbb294c8a	-0.0025832974
189	0x3c4c1d46	0.012458151
190	0xbbf8bb82	-0.007590712
191	0xbc811b37	-0.015760047
192	0x3bbf6d4d	0.005841887
193	0xbbdfed68	-0.006833721
194	0x39490dc4	0.00019173982
195	0xbc36c8bf	-0.01115626
196	0x3aec666d	0.0018035896
197	0x3b482d96	0.003054475
198	0x3bf8cf57	0.007593076
199	0x3c4299ce	0.01187749
200	0x3c097fb8	0.008392267
201	0xbba81e10	-0.005130537
202	0x3b12e6bc	0.002241536
203	0x3c654360	0.013993114
204	0xbaba5005	-0.0014214522
205	0x3a53dbf5	0.00080817874
206	0xbbaf739b	-0.0053543574
207	0x3c0ac147	0.0084689325
208	0xbbf1c575	-0.007378275
209	0x3bec55c3	0.007212372
210	0x3c93019a	0.0179451
211	0x3c24ec71	0.010066138
212	0x3afcb035	0.0019278588
213	0xbab16e67	-0.0013536931
214	0xbc4daa40	-0.012552798
215	0x3c41271f	0.011789112
216	0x3a9e6b9f	0.0012086517
217	0xbb5890e0	-0.0033045337
218	0x3b6849c0	0.003544435
219	0xbb8e8053	-0.0043487935
220	0xbb560850	-0.0032658763
221	0x3b53f6ef	0.0032343229
222	0x3b198906	0.002342762
223	0x3c61d033	0.013782549
224	0x3ac0421f	0.0014668143
225	0x3a5e201b	0.0008473412
226	0x3c31dfef	0.010856613
227	0xbc13496f	-0.008989676
228	0x3c2c10cf	0.010502054
229	0xbc302924	-0.010751996
230	0xbbd54520	-0.0065084845
231	0x3b07ff6f	0.0020751616
232	0xbbab2c34	-0.0052237753
233	0x3c2e0c92	0.010623114
234	0x3c8a101c	0.016853385
235	0xbb950ff3	-0.0045490204
236	0xbbfe7cf7	-0.007766362
237	0x3bb1d213	0.005426654
238	0xbbb46fc9	-0.00550649
239	0xbc345d26	-0.011008536
240	0x3bc03b40	0.005866438
241	0xbb8fe424	-0.00439121
242	0x3b8e6fc7	0.004346821
243	0xba34ae44	-0.00068924227
244	0x3af53353	0.0018707312
245	0xbc0c3b79	-0.008559101
246	0x3c746d48	0.014918633
247	0x3a94970b	0.0011336518
248	0x3c287e8f	0.01028408
249	0xbc4e54d3	-0.012593466
250	0x3c0ca286	0.0085836705
251	0x3c365767	0.011129237
252	0xbc95b31c	-0.018273883
253	0x3a9a4d0b	0.0011772228
254	0x3c6ba392	0.01438226
255	0xbb41b412	-0.0029556793

action_model._discrete_distribution.branches.0.bias f4 [5]
0	0x00000000	0.0
1	0x00000000	0.0
2	0x00000000	0.0
3	0x00000000	0.0
4	0x00000000	0.0

action_model._discrete_distribution.branches.1.weight f4 [2, 128]
0	0x3b995863	0.004679726
1	0xbbd644b0	-0.00653895
2	0x3b3ae9bc	0.0028520664
3	0x3b0225ef	0.0019859036
4	0x3b986d09	0.00465167
5	0x3a816d6c	0.0009874529
6	0x3b5afe0f	0.003341559
7	0x3c08486c	0.008318048
8	0xbbc2274b	-0.0059250942
9	0x399bba27	0.00029702598
10	0xbbd14d8d	-0.0063874186
11	0xb9efb77a	-0.00045722333
12	0x3b4799f8	0.0030456763
13	0xbad81d87	-0.0016488292
14	0xbcc0e29f	-0.023545561
15	0x3a1a9205	0.00058963924
16	0x3a0bafc6	0.00053286215
17	0xbc3cceb5	-0.011523892
18	0xbc6ef350	-0.014584377
19	0x3c66efdb	0.014095272
20	0x3bc40d3d	0.0059830234
21	0xbb7324a3	-0.0037100695
22	0x3cb2e44e	0.02183738
23	0x3c1bf413	0.009518641
24	0xbc06902f	-0.008213087
25	0x3c8d58b6	0.017254215
26	0x3b7deed3	0.0038747087
27	0x3c57ece8	0.013179041
28	0xbac835e1	-0.0015274846
29	0x3b226250	0.0024777837
30	0x3b1c9ea3	0.0023898266
31	0x3c1d77f4	0.009611119
32	0x3c1d4107	0.009598023
33	0xbb931a4c	-0.004489219
34	0x3c9f6ebf	0.019461988
35	0xbbd8d33a	-0.006616977
36	0xbbabc8eb	-0.005242457
37	0xbb5d2a5f	-0.003374718
38	0xbbf3774d	-0.0074299932
39	0x3c0e0b6d	0.008669716
40	0x3bad1b0e	0.005282766
41	0x39a4872f	0.00031381237
42	0x3ca4d1db	0.020119598
43	0xbbd41cdb	-0.0064731664
44	0x3c4b23d3	0.012398678
45	0xbc5254d2	-0.012837606
46	0xba23bc66	-0.000624603
47	0x3c3ab0fc	0.011394735
48	0xbbcc2c93	-0.0062308996
49	0x3c0f0fd3	0.0087318
50	0x3b9c80c9	0.0047760946
51	0xbbca5cff	-0.006175637
52	0x3a2e9bd9	0.00066607964
53	0xbcbaf91a	-0.022823859
54	0x3b5664ab	0.0032713811
55	0xbc21a0c5	-0.009864991
56	0xbc1a0377	-0.00940024
57	0xbc76a31f	-0.01505354
58	0xbbfdf135	-0.0077497014
59	0xbb983468	-0.004644919
60	0x3bc23229	0.0059263897
61	0xbac6b6ec	-0.0015160716
62	0xba10f661	-0.00055298774
63	0x3ae6fa07	0.0017622121
64	0xbc5dc287	-0.013535148
65	0xbac556c7	-0.0015055769
66	0xbbc09ac1	-0.005877823
67	0x3b99cc02	0.004693509
68	0x3c1138e7	0.008863664
69	0x3a4a6781	0.0007721112
70	0xbcb3965b	-0.021922281
71	0x3c899b63	0.016797727
72	0x3c8a2828	0.016864851
73	0x3952796b	0.00020072392
74	0xbb3b2ce7	-0.00285607
75	0x3bdfef70	0.006833963
76	0x387a5a7f	5.9688926e-05
77	0xbc845f99	-0.016158866
78	0xbc04452a	-0.008073131
79	0xbc6e5637	-0.014546922
80	0x3c4c0c2b	0.012454073
81	0xbcb58dbb	-0.022162309
82	0x3c677575	0.014127125
83	0xbc188b34	-0.009310532
84	0x396d60ea	0.00022638185
85	0xbb9f4529	-0.0048605395
86	0x3b44b6e3	0.0030016236
87	0x3b09225d	0.0020925023
88	0xbbb82291	-0.005619355
89	0x3c841e4f	0.016127734
90	0xbbeaaaa0	-0.0071614534
91	0xbb14b8df	-0.00226932
92	0xbb8e98ef	-0.004351727
93	0x3b3a1fb3	0.0028400242
94	0x3bccedd7	0.0062539387
95	0x3c5164f7	0.01278042
96	0xbb86a38f	-0.004108853
97	0x3c3e3b63	0.011610839
98	0xbc3f2340	-0.011666119
99	0xbb8a71b2	-0.0042249793
100	0x3bc308e3	0.005951987
101	0x38525765	5.0149294e-05
102	0xbb6b6df0	-0.0035923682
103	0xbb058ea5	-0.0020379212
104	0x3bbfee35	0.005857254
105	0xbbebd435	-0.007196928
106	0x3b9142ea	0.0044330256
107	0x3c1f0a62	0.009707065
108	0x3ba8b5bb	0.005148617
109	0x3bf4d40f	0.0074715684
110	0xbb84b45b	-0.0040498204
111	0xbc3adc3d	-0.011405048
112	0x3c59bfed	0.013290388
113	0x391a63f0	0.00014723814
114	0x3c34b510	0.011029497
115	0x3b521c6d	0.00320604
116	0x3b8422f3	0.0040324866
117	0x3b069dcd	0.0020540834
118	0x3bd434eb	0.006476035
119	0xbc5219d5	-0.012823542
120	0x3a9fe2e8	0.0012198361
121	0x3b52bd9f	0.003215648
122	0xbad49323	-0.0016218167
123	0x3c326174	0.010887492
124	0x3c43691c	0.0119269155
125	0xbbb3aaef	-0.0054830234
126	0xbc0cb820	-0.008588821
127	0x3bbf5a35	0.005839611
128	0x39428248	0.00018549815
129	0x3c7bd692	0.015370982
130	0xbc731127	-0.014835632
131	0x3b0d006a	0.002151514
132	0x3b60984a	0.003427046
133	0x3c1b79cf	0.009489491
134	0xbc0cb84f	-0.0085888645
135	0x3c482be2	0.012217494
136	0xbc31f7e1	-0.010862322
137	0x3b1be5c2	0.002378807
138	0xbc95ecd1	-0.0183014
139	0x3bc72b42	0.006078155
140	0x3c37fc97	0.011229656
141	0x3c5e0e48	0.01355321
142	0x3c0c0b18	0.008547567
143	0xbbda1610	-0.006655462
144	0xbc9c071f	-0.019046364
145	0xbbdea538	-0.006794598
146	0x3b18bbd5	0.0023305316
147	0x3bc9d3df	0.00615929
148	0x3bd28450	0.0064244643
149	0xbbe0fce8	-0.0068660863
150	0xb9140add	-0.00014118427
151	0xbab9a1db	-0.0014162617
152	0x3c48e637	0.012261919
153	0xba382bab	-0.000702555
154	0x3af58cca	0.0018733975
155	0x3c235ad6	0.009970387
156	0xbc80c54a	-0.015719075
157	0xbc6868ca	-0.01418514
158	0xba366168	-0.00069572637
159	0x3b812847	0.003941569
160	0x3c2b2b0b	0.010447274
161	0xba036640	-0.000501249
162	0xbc855677	-0.016276581
163	0xbbbc46ab	-0.005745729
164	0xbc60bf32	-0.0137174595
165	0xbc6928f5	-0.014230956
166	0x3b3e4833	0.0029034733
167	0x3c997e5f	0.018737016
168	0x3ad7ca3d	0.001646347
169	0x3acded7f	0.0015711038
170	0xbbf3bb38	-0.0074380897
171	0x3c9ef67b	0.01940464
172	0x3c3fccbc	0.011706527
173	0x3c117387	0.0088776415
174	0xbb9cd32f	-0.0047859172
175	0x3b90a608	0.0044143237
176	0xbb84b7bc	-0.004050223
177	0xbb5ab24b	-0.003337043
178	0x3aaf14ad	0.0013357602
179	0xbb718408	-0.0036852378
180	0x3b358b1d	0.0027701326
181	0xbae602e3	-0.0017548468
182	0x3c28f1a3	0.010311517
183	0xbc50e09a	-0.012748862
184	0xbb347e43	-0.0027541078
185	0x3ba497bf	0.0050229724
186	0xbb3177c2	-0.0027079438
187	0x3c083fe7	0.008316017
188	0xbba321b4	-0.004978383
189	0x3bb1cb2b	0.005425831
190	0xbb0c7f5f	-0.0021438224
191	0x3c38bb7d	0.011275169
192	0xbc25942f	-0.0101061305
193	0x3baebfc2	0.005332918
194	0x3b92508a	0.0044651674
195	0x3b8a0fe1	0.0042133187
196	0x3bf1eaf2	0.007382744
197	0xbb8e6441	-0.0043454473
198	0xbbb50c3b	-0.0055251396
199	0x3bda471b	0.0066613085
200	0x3be0531b	0.0068458444
201	0x3b978c64	0.00462489
202	0xbc69aa48	-0.01426179
203	0x3c8ba37f	0.017045734
204	0xb82a9137	-4.06664e-05
205	0xbba7a97f	-0.005116641
206	0x3c1c11c2	0.009525718
207	0x3c77ae63	0.015117261
208	0xbc86f59a	-0.016474534
209	0x3c8b47b8	0.017001972
210	0xbb4721e7	-0.0030385198
211	0x3b523143	0.003207282
212	0xbb77d0e5	-0.003781372
213	0x3c5691bb	0.013096268
214	0x3b5ec04d	0.0033989132
215	0x3c952a0b	0.018208524
216	0x3bafee93	0.0053690164
217	0xbb6c3918	-0.0036044773
218	0xbbad2b97	-0.0052847373
219	0xba2b78bf	-0.0006541125
220	0xbba68536	-0.005081798
221	0xbb52a92d	-0.0032144294
222	0x3bb786ea	0.0056008
223	0x3bbf1076	0.0058308197
224	0x3c880038	0.016601667
225	0x3c0d17ff	0.008611678
226	0xba7c1ec0	-0.0009617619
227	0x3b4bdb46	0.003110604
228	0x3a3f0e81	0.0007288233
229	0x3accb51c	0.001561794
230	0xbadd839b	-0.0016900183
231	0xbbc23a0c	-0.00592733
232	0x3b05f19f	0.0020438207
233	0xbb1b2d2b	-0.0023678045
234	0x39ca6f7b	0.00038611502
235	0xbbbbeda3	-0.0057351156
236	0x3c024046	0.007949894
237	0x3ba970c7	0.005170915
238	0xbc16e607	-0.009210116
239	0xbbd7695a	-0.006573838
240	0x3ac32105	0.001488716
241	0xbc01512d	-0.007892889
242	0xbae89163	-0.0017743524
243	0x3bcfd137	0.006342079
244	0x3ca8dbbf	0.020612596
245	0xbb8b3823	-0.0042486354
246	0xbc085821	-0.008321793
247	0xbc09ce1b	-0.008410956
248	0xbbf5d627	-0.0075023356
249	0xbbd33020	-0.006444946
250	0x3c412929	0.0117895985
251	0xbb2bb0f2	-0.0026197997
252	0xbbd38745	-0.0064553344
253	0xbc0b3964	-0.00849757
254	0x3b90644f	0.004406489
255	0xb9fda332	-0.0004837751

action_model._discrete_distribution.branches.1.bias f4 [2]
0	0x00000000	0.0
1	0x00000000	0.0

network_body._body_endoder.seq_layers.0.weight f4 [128, 5]
0	0xbf6aa7c5	-0.91662246
1	0xbea93506	-0.33048266
2	0x3ed05b4c	0.40694654
3	0x3f7b9e0e	0.9828805
4	0x3ee13d88	0.43992257
5	0xbf83df3c	-1.0302501
6	0x3e2fde9b	0.17174761
7	0x3e334239	0.1750573
8	0x3c9ad920	0.018902361
9	0x3f3d6b97	0.73992294
10	0x3e18b919	0.14914359
11	0xbfa02f2b	-1.2514395
12	0x3f0a1d45	0.5395091
13	0xbe9cb596	-0.3060729
14	0x3e8b200b	0.27172884
15	0x3e8cec34	0.2752396
16	0x3dc9d99b	0.09855958
17	0x3d7060dd	0.058686126
18	0x3dc08c86	0.09401803
19	0xbf1800ab	-0.5937602
20	0x3da57ecb	0.080808245
21	0xbf093ea8	-0.5361123
22	0xbf24a552	-0.6431476
23	0xbf25cd10	-0.64766026
24	0x3f488422	0.7832662
25	0xbe27841d	-0.16358991
26	0xbc0f264e	-0.00873716
27	0x3f0b2aba	0.5436207
28	0xbe73e8fd	-0.23819347
29	0x3e787bdb	0.24265997
30	0x3e1738d7	0.14767776
31	0xbe69178c	-0.22762889
32	0x3ea5d5e6	0.32389754
33	0xbf6855d4	-0.90755963
34	0xbdf663d1	-0.12030757
35	0x3f9b7923	1.2146343
36	0xbe898f70	-0.26867247
37	0xbf979a6a	-1.1843998
38	0x3e1e2308	0.15443051
39	0xbe5c336a	-0.21503988
40	0x3d3e1fdf	0.046417113
41	0xbe971731	-0.2950988
42	0x3f4a6846	0.7906536
43	0x3de2dd05	0.110773124
44	0xbe91abf7	-0.2845151
45	0xbd7ad95f	-0.061242457
46	0x3d8cb039	0.06869549
47	0xbdef7f60	-0.11694217
48	0x3cc6b2b5	0.024255136
49	0xbd27148f	-0.04079109
50	0x3ed74458	0.4204433
51	0x3b6b4d1f	0.0035904122
52	0xbd8087f9	-0.06275935
53	0xbe9e3c20	-0.30905247
54	0x3e1f72a1	0.15571071
55	0x3ee6234a	0.44948798
56	0x3d90ed11	0.07076467
57	0xbb5c2913	-0.0033593818
58	0xbdc4e624	-0.09614208
59	0xbb9ccc52	-0.004785099
60	0xbc044800	-0.008073807
61	0x3e1e30a0	0.15448236
62	0xbeac6c60	-0.33676434
63	0xbe700c38	-0.23442161
64	0xbe85549b	-0.2604111
65	0x3f1e59a2	0.6185552
66	0x3cf58953	0.029972708
67	0x3e687341	0.22700216
68	0x3ea9b69c	0.33147132
69	0xbe0d8403	-0.1381989
70	0xbfa6336e	-1.2984445
71	0x3f263f78	0.64940596
72	0x3e493e56	0.19652686
73	0xbf2dc987	-0.6788563
74	0x3f305857	0.68884796
75	0xbeb74461	-0.35794356
76	0x3fa966a1	1.3234445
77	0x3eb13ad8	0.34615207
78	0xbe64ba81	-0.2233677
79	0xbeafe206	-0.3435213
80	0xbde47e5e	-0.11156915
81	0x3ad15387	0.0015970328
82	0x3f891518	1.0709562
83	0xbe9f4a90	-0.31111574
84	0xbea94ea7	-0.3306782
85	0x3e9d2deb	0.30699095
86	0x3f145a1e	0.5795001
87	0x3eb4765d	0.35246554
88	0x3e0b3046	0.13592634
89	0xbf6cea1d	-0.9254473
90	0xbde137ef	-0.109969966
91	0x3e7187d8	0.23586977
92	0x3e7dae2c	0.24773473
93	0xbecb5dff	-0.3972015
94	0x3f277ba3	0.6542303
95	0x3ec2e102	0.38062292
96	0x3e63683f	0.22207735
97	0xbe499981	-0.19687463
98	0xbc98f402	-0.01867104
99	0xbe789bb3	-0.24278145
100	0xbe7ddff0	-0.24792457
101	0xbf1f5dbf	-0.6225242
102	0x3f6c641b	0.9234025
103	0x3dce22da	0.10065241
104	0xbe5aa396	-0.21351466
105	0x3edd5ba5	0.43233982
106	0x3e369561	0.17830421
107	0xbe708f4c	-0.23492163
108	0x3d337d7b	0.04382084
109	0x3f1ab2fc	0.6042936
110	0x3e577ed2	0.21044472
111	0xbe0d276c	-0.1378457
112	0xbe8396bd	-0.25700942
113	0xbdc37037	-0.09542888
114	0xbc878dac	-0.016547047
115	0xbd59d21f	-0.053178903
116	0xbe06e40f	-0.13172935
117	0xbd34e068	-0.044159323
118	0x3e80df09	0.25170162
119	0xbf019f38	-0.50633574
120	0xbf62ac6a	-0.88544333
121	0x3da88e04	0.08230212
122	0x3edf2098	0.43579555
123	0xbe1b1f28	-0.15148604
124	0xbf36e289	-0.71439415
125	0x3e778a98	0.24173963
126	0x3f2206b1	0.6329146
127	0xbf22f1a2	-0.6364995
128	0xbed974da	-0.42471963
129	0x3e43544a	0.19075122
130	0x3f312b4c	0.6920669
131	0x3f025e3c	0.5092504
132	0xbe312f11	-0.1730311
133	0xbeb74d01	-0.35800937
134	0x3f819500	1.0123596
135	0xbdb06743	-0.086134456
136	0xbda0b0ea	-0.07846244
137	0xbc3d17c0	-0.011541307
138	0x3f3355a1	0.70052534
139	0x3eb76b26	0.35823935
140	0x3d44a615	0.04800995
141	0xbe861f6a	-0.26195842
142	0x3e4e49a8	0.20145285
143	0x3dd30f9a	0.1030571
144	0xbde6999d	-0.11259768
145	0x3eb9581e	0.3620004
146	0x3ec99f2a	0.39379245
147	0xbf9e57e8	-1.2370577
148	0x3e57a76e	0.21059963
149	0xbef6f01c	-0.48230064
150	0x3f1a27ce	0.6021699
151	0xbe26aaf2	-0.16276148
152	0xbf09d42d	-0.5383938
153	0x3d51f5f5	0.051259954
154	0xbebd6add	-0.36995593
155	0xbea644df	-0.3247442
156	0xbf6bcd2a	-0.9210993
157	0xbe6dfe51	-0.23241545
158	0xbe580234	-0.2109459
159	0x3f429960	0.7601528
160	0x3f0136e6	0.50474393
161	0x3eb50d59	0.35361746
162	0xbe8ddeab	-0.27708945
163	0x3ee983ef	0.4560847
164	0x3eff262e	0.49833816
165	0x3f0b4612	0.54403794
166	0xbed3b33b	-0.4134768
167	0x3eae0da8	0.33994794
168	0xbf079801	-0.52966315
169	0x3e3138cd	0.17306824
170	0x3f40130c	0.75029063
171	0xbe8d4ca7	-0.27597544
172	0x3de238e3	0.110460065
173	0xbe39279b	-0.18081515
174	0x3ec39208	0.3819735
175	0xbf488ede	-0.78343
176	0xbee927a2	-0.4553805
177	0x3ebef64f	0.37297294
178	0xbe19f464	-0.15034634
179	0xbde05d04	-0.10955241
180	0x3e163a58	0.14670694
181	0xbf150453	-0.58209723
182	0x3ee2b4a0	0.4427843
183	0x3f88d41f	1.0689734
184	0x3f3cbda8	0.7372689
185	0xbee7899b	-0.45222172
186	0xbe5242aa	-0.20533243
187	0xbeb1a071	-0.3469272
188	0xbe4ae942	-0.19815543
189	0xbf08750f	-0.5330362
190	0x3ecad440	0.3961506
191	0xbe50fb39	-0.20408334
192	0xbebc4e36	-0.3677842
193	0x3f1a4197	0.6025633
194	0xbead04e9	-0.3379281
195	0x3ef93b4e	0.48678058
196	0x3f9b8055	1.2148539
197	0x3dbc82bd	0.09204624
198	0x3e9864fc	0.29764545
199	0xbe97490f	-0.29547927
200	0xbf166c6e	-0.587592
201	0x3e825963	0.25458822
202	0x3ea654b3	0.32486495
203	0x3eac1c1d	0.336152
204	0x3f6d7ecd	0.9277161
205	0xbc83b3ad	-0.016076887
206	0xbd96f738	-0.07371372
207	0x3e9ac372	0.30227238
208	0xbee31c11	-0.4435735
209	0x3f411e46	0.7543682
210	0x3ddce31c	0.10785505
211	0x3e8c7bc4	0.27438176
212	0xbeec8bd6	-0.46200436
213	0x3f540c52	0.828313
214	0xbe92ba42	-0.28657728
215	0x3ec053e3	0.37564
216	0xbea9d089	-0.33166912
217	0x3eae5b1c	0.34053886
218	0xbd69b115	-0.057053644
219	0xbe4a4bcb	-0.19755475
220	0xbecf2116	-0.4045493
221	0x3c1a0a76	0.009401908
222	0x3e0351d0	0.12824178
223	0xbe463c96	-0.19359049
224	0xbeffa9c4	-0.49934208
225	0xbea02332	-0.31276852
226	0xbfb435f5	-1.4078966
227	0x3e3145e0	0.17311811
228	0x3e83b85f	0.257266
229	0x3f15b646	0.5848125
230	0xbe5c4b74	-0.21513158
231	0x3e3453ac	0.17610043
232	0x3d52b9ec	0.05144684
233	0xbe874851	-0.2642236
234	0xbd8dcb84	-0.06923583
235	0x3dbd2270	0.09235084
236	0x3e46a64e	0.19399378
237	0xbe06c95e	-0.13162753
238	0xbf4c8aec	-0.7989948
239	0x3ecdfb7b	0.40230927
240	0x3e61de90	0.22057557
241	0xbf45b984	-0.772362
242	0xbedc9325	-0.43081012
243	0x3f539d8c	0.8266227
244	0xbf2e3665	-0.6805175
245	0xbf242f83	-0.64135
246	0x3e88bbc4	0.26705754
247	0xbdb47087	-0.088105254
248	0x3f2dadd4	0.67843366
249	0x3e84d22d	0.259416
250	0xbefa1270	-0.48842192
251	0xbe3d7a33	-0.18503647
252	0x3f31832b	0.6934077
253	0x3f61639b	0.8804261
254	0xbea41619	-0.3204811
255	0xbef091a3	-0.46986112

network_body._body_endoder.seq_layers.0.bias f4 [128]
0	0x00000000	0.0
1	0x00000000	0.0
2	0x00000000	0.0
3	0x00000000	0.0
4	0x00000000	0.0
5	0x00000000	0.0
6	0x00000000	0.0
7	0x00000000	0.0
8	0x00000000	0.0
9	0x00000000	0.0
10	0x00000000	0.0
11	0x00000000	0.0
12	0x00000000	0.0
13	0x00000000	0.0
14	0x00000000	0.0
15	0x00000000	0.0
16	0x00000000	0.0
17	0x00000000	0.0
18	0x00000000	0.0
19	0x00000000	0.0
20	0x00000000	0.0
21	0x00000000	0.0
22	0x00000000	0.0
23	0x00000000	0.0
24	0x00000000	0.0
25	0x00000000	0.0
26	0x00000000	0.0
27	0x00000000	0.0
28	0x00000000	0.0
29	0x00000000	0.0
30	0x00000000	0.0
31	0x00000000	0.0
32	0x00000000	0.0
33	0x00000000	0.0
34	0x00000000	0.0
35	0x00000000	0.0
36	0x00000000	0.0
37	0x00000000	0.0
38	0x00000000	0.0
39	0x00000000	0.0
40	0x00000000	0.0
41	0x00000000	0.0
42	0x00000000	0.0
43	0x00000000	0.0
44	0x00000000	0.0
45	0x00000000	0.0
46	0x00000000	0.0
47	0x00000000	0.0
48	0x00000000	0.0
49	0x00000000	0.0
50	0x00000000	0.0
51	0x00000000	0.0
52	0x00000000	0.0
53	0x00000000	0.0
54	0x00000000	0.0
55	0x00000000	0.0
56	0x00000000	0.0
57	0x00000000	0.0
58	0x00000000	0.0
59	0x00000000	0.0
60	0x00000000	0.0
61	0x00000000	0.0
62	0x00000000	0.0
63	0x00000000	0.0
64	0x00000000	0.0
65	0x00000000	0.0
66	0x00000000	0.0
67	0x00000000	0.0
68	0x00000000	0.0
69	0x00000000	0.0
70	0x00000000	0.0
71	0x00000000	0.0
72	0x00000000	0.0
73	0x00000000	0.0
74	0x00000000	0.0
75	0x00000000	0.0
76	0x00000000	0.0
77	0x00000000	0.0
78	0x00000000	0.0
79	0x00000000	0.0
80	0x00000000	0.0
81	0x00000000	0.0
82	0x00000000	0.0
83	0x00000000	0.0
84	0x00000000	0.0
85	0x00000000	0.0
86	0x00000000	0.0
87	0x00000000	0.0
88	0x00000000	0.0
89	0x00000000	0.0
90	0x00000000	0.0
91	0x00000000	0.0
92	0x00000000	0.0
93	0x00000000	0.0
94	0x00000000	0.0
95	0x00000000	0.0
96	0x00000000	0.0
97	0x00000000	0.0
98	0x00000000	0.0
99	0x00000000	0.0
100	0x00000000	0.0
101	0x00000000	0.0
102	0x00000000	0.0
103	0x00000000	0.0
104	0x00000000	0.0
105	0x00000000	0.0
106	0x00000000	0.0
107	0x00000000	0.0
108	0x00000000	0.0
109	0x00000000	0.0
110	0x00000000	0.0
111	0x00000000	0.0
112	0x00000000	0.0
113	0x00000000	0.0
114	0x00000000	0.0
115	0x00000000	0.0
116	0x00000000	0.0
117	0x00000000	0.0
118	0x00000000	0.0
119	0x00000000	0.0
120	0x00000000	0.0
121	0x00000000	0.0
122	0x00000000	0.0
123	0x00000000	0.0
124	0x00000000	0.0
125	0x00000000	0.0
126	0x00000000	0.0
127	0x00000000	0.0

network_body._body_endoder.seq_layers.2.weight f4 [128, 128]
0	0xbd2bbc96	-0.041927896
1	0x3d844d56	0.06460063
2	0xbca673af	-0.020318834
3	0xbd78db89	-0.06075624
4	0x3cd2b7f2	0.025722478
5	0xbda5cce3	-0.0809572
6	0xbd65201c	-0.055938825
7	0x3dd6e1d3	0.10492291
8	0x3d227961	0.039666537
9	0x3e0c2d14	0.13689071
10	0x3d0d1f96	0.03445395
11	0x3c35845c	0.01107892
12	0x3d7f8c0b	0.062389415
13	0xbd67226c	-0.05642931
14	0x3d2c6d6e	0.042096548
15	0x3ddc2a1f	0.107502215
16	0x3df291b9	0.11844201
17	0x3ba2b4e1	0.00496541
18	0x3c36d780	0.011159778
19	0x3dbfde40	0.09368563
20	0x3da6965e	0.08134149
21	0xbc536a91	-0.012903825
22	0xbb84e648	-0.004055772
23	0x3a8adfe6	0.0010595291
24	0x3d0b77f3	0.03404994
25	0x3da71204	0.08157733
26	0x3dce6afa	0.10078998
27	0xbbaccaa0	-0.005273178
28	0xbd98cc7a	-0.07460876
29	0xbda80e63	-0.08205869
30	0xbcab191e	-0.020886
31	0x3d3c8ac0	0.04603076
32	0x3e5ced43	0.21574883
33	0xbdab6b2e	-0.08370052
34	0xbc8c2d97	-0.017111583
35	0xbdd91825	-0.10600308
36	0xbe0044d1	-0.12526251
37	0x3d89a504	0.06720927
38	0xbdf903f9	-0.12158961
39	0x3de8fac3	0.11375954
40	0xbd269e7b	-0.040678483
41	0x3d680d5e	0.056653373
42	0xbe03fe49	-0.12889971
43	0xbd578a59	-0.052622173
44	0x3d732280	0.059359074
45	0xbc1d8f9c	-0.009616759
46	0x3c98a59f	0.018633662
47	0x3d9b2903	0.07576182
48	0xbe1b9741	-0.15194418
49	0x3dee9acd	0.1165062
50	0x3bb60e01	0.0055558686
51	0x3ce594d0	0.02802506
52	0x3d5bef5f	0.05369508
53	0xbbeb9f95	-0.0071906545
54	0x3da842f0	0.08215892
55	0xbd703fdd	-0.058654655
56	0x3d1f8760	0.038947463
57	0x3ce5dc22	0.028059069
58	0x3cd0d66e	0.025492873
59	0x3d862be4	0.0655134
60	0x3d5e5bab	0.05428664
61	0xbd83da3a	-0.06438108
62	0x3c901765	0.01758928
63	0x3df815a8	0.121135056
64	0xbc519d1d	-0.012793806
65	0x3bb00498	0.0053716414
66	0x3cc0dc88	0.023542657
67	0xbdb819e6	-0.08989315
68	0xbdecfcdf	-0.11571669
69	0xbdb154f8	-0.08658785
70	0x3d9a90cb	0.07547148
71	0xbde8e33a	-0.11371465
72	0x3d7ee171	0.062226716
73	0x3c84d5be	0.016215201
74	0xba680c28	-0.0008851909
75	0x3d6ac2a9	0.05731455
76	0x3de05321	0.109533556
77	0x3d6632bb	0.056200724
78	0x3dc5b932	0.09654464
79	0xbc668b50	-0.014071301
80	0xbdf5aad9	-0.11995477
81	0x3d54fda9	0.05199972
82	0x3d1e429e	0.03863775
83	0xbd5ac745	-0.053412694
84	0x3db06f19	0.0861494
85	0x3de4b8e7	0.1116808
86	0xbc12a04a	-0.008949349
87	0xbe143298	-0.14472425
88	0xbd4cfd1a	-0.050046064
89	0xbe5941e1	-0.21216537
90	0x3dd92aba	0.106038526
91	0xbdb920b0	-0.09039438
92	0xbc9ba61e	-0.01900011
93	0x3d756845	0.059913892
94	0x3c1b9054	0.00949486
95	0x3cfaba05	0.03060628
96	0xbd1b7e99	-0.03796253
97	0xbdec0202	-0.115238205
98	0xbe09b067	-0.13446198
99	0xbd14323f	-0.03618073
100	0x3d0f0d00	0.034924507
101	0xbe07e5fb	-0.13271324
102	0x3bcb86d8	0.006211143
103	0xbb77c685	-0.0037807536
104	0xbd3aa836	-0.045570575
105	0x3dd15142	0.10220577
106	0xbd046908	-0.032326728
107	0xbc9ba9f8	-0.019001946
108	0x3dd555f0	0.10416782
109	0x3dca89cc	0.09889564
110	0x3cf1ad58	0.029501602
111	0xbda0c988	-0.07850939
112	0x3d926654	0.07148424
113	0xbc876993	-0.016529834
114	0xbe40a2cc	-0.18812102
115	0xbdd53bee	-0.10411821
116	0xbe185c25	-0.148789
117	0xbe071279	-0.1319064
118	0xbd7dcf25	-0.061965127
119	0x3e10f161	0.14154579
120	0xbdb03421	-0.08603693
121	0xbe05eed5	-0.13079388
122	0x3e01c7a8	0.12673819
123	0xbe12316b	-0.14276664
124	0x3c549d65	0.012976979
125	0x3c837d19	0.016050862
126	0x3dd2be5e	0.10290216
127	0xbde42f8c	-0.11141881
128	0x3ad8996f	0.0016525219
129	0xb988d388	-0.00026097544
130	0x3d30317d	0.043015946
131	0xbd8693a7	-0.06571131
132	0x3c42fcba	0.011901075
133	0x3dadb1d1	0.084811814
134	0xbdf59f2a	-0.11993249
135	0x3c9ea71a	0.01936679
136	0xbd58c2ac	-0.05292003
137	0xbd23d252	-0.0399955
138	0x3da5bed3	0.080930375
139	0xbd2f88be	-0.042855017
140	0xbd331306	-0.043719314
141	0xbc9e97c6	-0.01935948
142	0x3de5248b	0.11188611
143	0xbdfc67cc	-0.12324485
144	0xbe36e879	-0.17862119
145	0x3e099094	0.13434058
146	0xbdc6c75f	-0.09705996
147	0x3e0ca182	0.13733485
148	0xbba4522b	-0.005014678
149	0xbd38c828	-0.04511276
150	0x3dcd91f9	0.10037608
151	0x3e2c5fbf	0.16833399
152	0x3e0bb530	0.13643336
153	0xbddb4bf4	-0.10707846
154	0x3d59eebe	0.053206198
155	0xbcc96182	-0.024582628
156	0xbd4a4001	-0.049377445
157	0xbc999004	-0.01874543
158	0xbe32960f	-0.17440055
159	0x3e0874ae	0.1332576
160	0xbd8cf0c7	-0.06881862
161	0x3c45d4be	0.0120746475
162	0xbd2c0902	-0.042000778
163	0xbd97c185	-0.07409958
164	0x3db8bb7d	0.090201356
165	0xbcabeada	-0.02098601
166	0x3e433fe1	0.19067337
167	0x3cae20e0	0.02125591
168	0x3bf02e9d	0.0073297755
169	0x3e925674	0.28581583
170	0xbe0e9e3f	-0.13927554
171	0x3bbd61cf	0.005779482
172	0xbdcb9815	-0.09941117
173	0x3cc425f5	0.02394388
174	0x3db50e12	0.08840574
175	0x3d089817	0.03334817
176	0xbd966c1d	-0.0734484
177	0x3ca1f694	0.019770898
178	0x3cc4a361	0.024003686
179	0xbc78504f	-0.015155866
180	0x3d875352	0.06607689
181	0xbe1bdfc9	-0.15222086
182	0x3daf6450	0.08564055
183	0x3cc77e47	0.024352206
184	0xbd402387	-0.04690888
185	0xbe35de6b	-0.17760627
186	0xbc25157d	-0.010075924
187	0x3bb9d1f6	0.0056707812
188	0xbde5459b	-0.11194917
189	0x3caea96d	0.021321023
190	0xbb2a237b	-0.002596109
191	0x3d018edf	0.031630393
192	0x3dc2ba03	0.09508135
193	0x3c5656c3	0.013082209
194	0xbd8edaff	-0.06975364
195	0xbdde29e0	-0.10847831
196	0xbdb9bfe9	-0.09069807
197	0xbdb3e48f	-0.087838285
198	0xbda0ed10	-0.07857716
199	0xbe111aad	-0.14170332
200	0xbd7322b7	-0.05935928
201	0x3ce5abe2	0.028036062
202	0xbe0178eb	-0.12643783
203	0x3de1f674	0.11033335
204	0x3d47c7e1	0.048774604
205	0xbdfa4069	-0.122193165
206	0x3d5a46c9	0.053290162
207	0xbbedb6f6	-0.0072544767
208	0x3d4fa17d	0.050691117
209	0xbc3802a7	-0.011231101
210	0x3ddbb39b	0.107276164
211	0x3e265503	0.16243367
212	0x3cd86524	0.026415415
213	0x3d1cb13a	0.038254954
214	0x3db331c1	0.08749724
215	0xbcffd4cc	-0.0312294
216	0xbd8662b4	-0.06561795
217	0x3c8b97e4	0.0170402
218	0xbd2e91a9	-0.04261938
219	0x3c1b39ed	0.00947426
220	0x3d8a2601	0.0674553
221	0x3db3fb93	0.08788218
222	0x3dabd21c	0.083896846
223	0x3d901739	0.07035679
224	0x3db451d0	0.08804667
225	0xbd2ae2aa	-0.04172007
226	0x3dbfba2d	0.09361682
227	0x3e586505	0.21132286
228	0x3cdb9889	0.026806133
229	0xbd10535a	-0.03523574
230	0x3e3e4adf	0.18583249
231	0xbd46b39d	-0.048511136
232	0x3e40b1b8	0.18817794
233	0xbda56387	-0.08075624
234	0xbcbdff98	-0.023193166
235	0xbd911b4f	-0.07085287
236	0x3d65e65c	0.05612789
237	0xbc02e6a5	-0.00798956
238	0x3e214b3b	0.15751354
239	0xb9123ac3	-0.00013945535
240	0xbd11b6bb	-0.035574656
241	0xbe15fdda	-0.14647618
242	0xbc502c1a	-0.012705827
243	0xbd17fa32	-0.03710384
244	0xbe1f24dd	-0.15541406
245	0xbd42a383	-0.04751922
246	0x3c955371	0.018228265
247	0xbd178489	-0.03699163
248	0xbb4f5160	-0.0031634197
249	0x3e35b81a	0.1774601
250	0xbd1ef93d	-0.03881191
251	0xbe23994b	-0.15976445
252	0xbcc0849b	-0.023500731
253	0xbdf1055d	-0.11768601
254	0xbd77acd4	-0.060467556
255	0xbe2b16ec	-0.16707963
